deep_emotion-20-128-0.005.pt (torch, 275520 bytes, 24 tensors)

conv1.weight f4 [10, 1, 3, 3]
00000000: e7f8 f7bd 4d40 413e a7ad 6f3e 7e2a afbe
00000010: 304b 9fbe 622e 583d ea22 56bd 0da0 87be
00000020: eb49 4f3d 9fd4 e0be aac1 18bf ae09 2b3c
00000030: 7c20 31be 6630 c1be 05ab 80be 282a 333d
00000040: 93c2 cf3e 59d8 b03e f845 2bbf 4c2e 13bf
00000050: b9e0 b03e a2ea acbe 41db ab3e 8742 f73e
00000060: ce3b 783e b8f5 983e 25bb cbbd ee97 e0be
00000070: e00f 9bbd ac4e 6b3f 9e4b a5bd 6f5e 86be
00000080: 7613 163f 415d bdbe 75d3 91be 212e 9fbe
00000090: 9894 aa3e d807 c7bc d7b9 78be 444f 10bf
000000a0: 1394 a6be 2ace cdbe 5688 f7be 8dd4 043f
000000b0: 30f0 673f 1c3b 9abd 33b1 253e 0324 eb3d
000000c0: 3d24 493d 5bc8 b5be 23a0 aa3d b3c6 8f3d
000000d0: c053 7c3d 8bf0 0a3e 874b 323e e25e 1dbf
000000e0: 269b 2ebf 3e5f cbbc 667c 79be c4bf 6a3e
000000f0: 8fbc 933e 1c01 e93e 77b7 313e 5d7a 853e
00000100: 8a0c 453f c48f 2c3f 7ecf 37bf b6ed f0be
00000110: 3883 00bf 7d43 92be e709 863e b34f 353d
00000120: 9d9f 3f3f bc8f bf3e d0fc 2ebe edcd 043f
00000130: 4edf e2be d366 25be 7a63 01bf d2b2 13bf
00000140: 6cb6 013e ab44 0b3f de3a 63be 416f 55bf
00000150: ffd7 f63e b65f 20bf 1a53 ef3d 1979 dbbd
00000160: 6945 1b3e e893 cd3e
-0.12108021 0.18872185 0.23406087 -0.34212106 -0.3111205 0.05277861 -0.05227939 -0.26489297
0.050607603 -0.43912217 -0.5967051 0.01043932 -0.17297548 -0.37732238 -0.25130478 0.043741375
0.40578136 0.3454006 -0.6690364 -0.5749252 0.3454645 -0.3377276 0.33565715 0.48292944
0.24241564 0.2987497 -0.09947804 -0.43865913 -0.07571387 0.9191692 -0.080710635 -0.26243922
0.58623445 -0.3698521 -0.2848164 -0.3108988 0.33316493 -0.024295732 -0.24289642 -0.5637095
-0.32534847 -0.40196353 -0.48346204 0.51886827 0.9060087 -0.075308055 0.16180877 0.11481478
0.049106825 -0.35504422 0.08331325 0.07020321 0.061603308 0.13568322 0.17411624 -0.61472905
-0.6820549 -0.024825688 -0.2436386 0.22924715 0.28854796 0.4550866 0.17355143 0.26069918
0.7697226 0.6740687 -0.7180098 -0.4705636 -0.50200224 -0.28567114 0.2617943 0.04426546
0.74852926 0.37414348 -0.17088628 0.5187672 -0.44310993 -0.16152506 -0.50542414 -0.57694733
0.12667245 0.54401654 -0.22190425 -0.83372885 0.48211667 -0.62646043 0.11685772 -0.10716457
0.15163197 0.40151906

conv1.bias f4 [10]
00000000: 77a5 f43c 601b d4be d36e 7d3e 1bbe e9be
00000010: 12eb edbe b93f bebe 33d3 8b3e c9b9 31be
00000020: 6729 3a3e 9d65 fb3d
0.029864056 -0.41427135 0.24749307 -0.4565285 -0.46468407 -0.37157992 0.2730957 -0.17356028
0.18179856 0.122752406

conv2.weight f4 [10, 10, 3, 3]
00000000: 4754 373d 1ddf 0fbe ce2f 463d c36d 08be
00000010: 1942 ddbd 0439 c0bd ab09 4ebd d31a 84bd
00000020: 37cb 8d3c 4017 89bd d844 31bd 9c82 523c
00000030: a7a4 75bd 4f2c 85bd a66b aabd e6f9 b23c
00000040: 9f61 f8bd f038 b7bd 0cc8 b03c ee30 acbd
00000050: 9752 0dbe e676 343d 2e02 83bd 5c6b e33c
00000060: 32e1 4dbd 2d3c 1dbd b76e 92bd 524c 113d
00000070: 218d c03d 5ecf ab3b 0d22 a13d 5ddb eebb
00000080: ae76 3bbd 2aad 54bd 8bb3 5a3b 0dbe 23bd
00000090: ba8c b93d 7a53 bfbd 976f b0bc a536 54bb
000000a0: e337 bfbc 7670 4f3d 9071 eb3b 28f9 653b
000000b0: db34 d8bd 3965 873c a07e c7bd bba6 863c
000000c0: 38bd 85bd bf9a 70bc 418a 223d 78c7 0ebd
000000d0: 7d18 1b3d 1e2e 4bbd af95 983b f47b 34bd
000000e0: d437 c1bd 6471 a7bd 3b62 243d b361 d8bd
000000f0: d8e5 85bd 76ac d3bd fc23 013d 5c26 ff3c
00000100: edfe a2bc 7911 a5bd d866 e4bc 2f06 e1bd
00000110: 7243 113d 8b10 f2bc 0758 6ebd 6d30 bc3c
00000120: 6ad5 d6bd 70a0 0f3c 1a5e 113d d133 13bd
00000130: e50d 93bd e9af 3dbc f0a2 b7bc 5565 c5bc
00000140: 636d dc3c e561 07be 160c cc3c 9d7f e03c
00000150: 0d5b e3bd d60f 1fbc 5ce5 c1bd 12e9 71bd
00000160: 200e 2c3c 42f2 00be d2fe 56bd 7b9f 1ebe
00000170: 3cb7 ddbd e08e 963a fc6c a0bb 0a92 aabd
00000180: 0f2e 70bd b25b dabd dc6a f1bd 499e 97bd
00000190: 91cf 63bd 7e6c 80bc 7dc1 d0bb 9c93 6e3d
000001a0: dd1c 3b3d 6355 f8bd 1cfe a5bb 55a8 0abe
000001b0: 93fe 9ebc 52d9 693c 8382 79bc 4938 ca3c
000001c0: 495e 113d 63ef 0dbe 326b 5e3d cd8d 0ebe
000001d0: 20f0 ccbd 0934 0c3c 0ddb 5bbd 772f 453d
000001e0: f9ab e5bc be5e 7dbd 68ac 353d deba c6bd
000001f0: 7f9c 403d c21a dabd 451a a5bd 6477 00be
00000200: 6ab3 b8bd 64d2 79bd 842c 6fbd 1c7a a1bc
00000210: a9ab 14be ef13 193d 2776 403c 8c57 52bd
00000220: 55cb 613d 4f4f af3d 8ecb 83bd a9cd 9e39
00000230: c92d 22bd c06c d1bd edac 183d 2914 d6bd
00000240: 4479 34be 904a fdbd 5dfe 8cbd 6d6c 1cbd
00000250: 5f14 93bd 6e26 fcbc 6382 8bbd 1ac9 10be
00000260: 4d5d 353d c4f7 e6bd 2b77 0cbd 8668 81bc
00000270: 0681 f1bd 3e47 ffbc 0c03 c3bd 6de5 eabd
00000280: 2528 65bd 985e 0ebe 4806 153c b1aa 03bd
00000290: 60ff d3bd cea8 fbbd 6301 96bd 60b7 01be
000002a0: b47c 47bc 3c90 47bd 2279 4cbd bb68 5c3c
000002b0: a427 4abd 162e c2bd 6bd9 47bd dca5 b53c
000002c0: 3a52 b1bc 6972 b1bd 02b9 cebc fc35 d8bd
000002d0: 3962 7bbd a465 e6bd 3ca7 3ebd 4891 d3bd
000002e0: c2be 943b 2da4 4abd 9139 d2bc e800 5fbd
000002f0: 3506 44bd 0467 eabc 6a4e f3bb da62 0ebe
00000300: 9ed3 7bbd 8932 0bbe 1896 213d 69e8 0a3d
00000310: 8468 e6bc bee0 93bd e877 9e3c a310 1f3d
00000320: d03f 223d 0d17 cdbc 6a71 53bc 2b88 9e3c
00000330: a0cc 6fbd 6cec 88bd e367 733d a961 ff3c
00000340: 12e1 c6bd e893 e0bd 743b 853d 044d a8bd
00000350: 256e 9f3c 360c 1abe 75f6 1dbd a5ff f4bd
00000360: 1152 29be 9f37 583c ec5f b83c 16af 92bd
00000370: b335 083d 0028 d13d bcb5 bbbb 8956 5d3d
00000380: 3a50 fb3c 73e9 00be 1478 063d 1ae6 56bd
00000390: ee08 5ebc 258f c6bd 543a d63d ce4e 7dbd
000003a0: 1887 9abd c729 abbd 5c73 3fbe c066 fabd
000003b0: 5873 84bd a23a 6fbd 7c4c 77bc db7a 0fbe
000003c0: 36a2 9bbc a414 41bd f743 e9bd 2030 a23d
000003d0: e437 86bd 613c dfbc 2bb7 e33c 6644 c5bd
000003e0: 04fa f1bc 2011 343d ec71 eebc 190c 05be
000003f0: 57a0 ee3c 2f3a c3bc 709c 02be e769 debd
0.044758108 -0.14049955 0.048385434 -0.13323121 -0.10803623 -0.09385875 -0.05030219 -0.06450429
0.017308814 -0.06693888 -0.043278545 0.0128485225 -0.059971478 -0.06502592 -0.083213136 0.021847676
-0.12127995 -0.08946407 0.021579765 -0.0840777 -0.13801037 0.044058703 -0.063969 0.027761154
-0.05026359 -0.038387466 -0.071500234 0.035473175 0.09401918 0.005243226 0.07867823 -0.0072893337
-0.04576748 -0.051922955 0.0033371176 -0.03997617 0.090600446 -0.09342094 -0.021537585 -0.0032381203
-0.023342079 0.05064436 0.0071851686 0.0035091136 -0.105569564 0.016527759 -0.09740949 0.016436925
-0.06530231 -0.014685332 0.03968263 -0.034858197 0.03786515 -0.049604528 0.0046565155 -0.044063523
-0.094344765 -0.081759244 0.040132742 -0.1056551 -0.0653798 -0.10335629 0.031528458 0.03114622
-0.019896949 -0.08059973 -0.027881071 -0.109875076 0.03546471 -0.029548904 -0.05818942 0.02297231
-0.10489924 0.008766279 0.035490133 -0.035938088 -0.071803845 -0.011577585 -0.022416562 -0.02409617
0.026907628 -0.13220938 0.024908107 0.0274046 -0.11101351 -0.009708365 -0.09467575 -0.059060164
0.010501415 -0.12592414 -0.05248911 -0.15490524 -0.10825965 0.0011486672 -0.0048958044 -0.08328636
-0.058637675 -0.10662021 -0.1178796 -0.074032374 -0.055617873 -0.015676733 -0.006370722 0.05824624
0.045681823 -0.12125661 -0.0050656926 -0.13540776 -0.0194085 0.014273005 -0.01522887 0.024685042
0.035490308 -0.1386085 0.05430145 -0.1392128 -0.10006738 0.008557328 -0.0536757 0.04814097
-0.028036105 -0.06185793 0.044353873 -0.09703611 0.047024246 -0.10649635 -0.08061651 -0.12545544
-0.090185955 -0.06099166 -0.058392063 -0.019711547 -0.14518608 0.037372526 0.01174692 -0.051353022
0.055125553 0.08560049 -0.06435309 0.00030289337 -0.039594445 -0.102258205 0.03727429 -0.10453064
-0.17624384 -0.12367737 -0.068844534 -0.03818934 -0.0718162 -0.030780043 -0.06811979 -0.14139214
0.04427843 -0.11277726 -0.034293335 -0.015796911 -0.117921874 -0.0311619 -0.095220655 -0.11469541
-0.055946488 -0.13903272 0.009095736 -0.032145206 -0.10351443 -0.12288056 -0.07324483 -0.12667608
-0.012175728 -0.048721537 -0.04992021 0.013452704 -0.04935421 -0.094814464 -0.04879133 0.022173814
-0.021645654 -0.086644 -0.025234703 -0.10557172 -0.06137297 -0.11249855 -0.046546206 -0.103304446
0.0045393417 -0.049472976 -0.025662215 -0.054444224 -0.047857482 -0.028613575 -0.007425119 -0.13904896
-0.06148111 -0.13593496 0.03944978 0.03391305 -0.028126009 -0.072206005 0.019344285 0.038834225
0.039611638 -0.025035406 -0.012905458 0.01935204 -0.058544755 -0.06685719 0.059425246 0.031174498
-0.097108975 -0.10965711 0.065054804 -0.082178146 0.0194617 -0.1504372 -0.038565118 -0.11962823
-0.16535212 0.013196855 0.022506677 -0.07162301 0.033254337 0.102127075 -0.0057284515 0.054037604
0.030677903 -0.12589054 0.03282936 -0.052465536 -0.013551934 -0.096952714 0.10460344 -0.061842732
-0.07545298 -0.08357578 -0.1869635 -0.12226629 -0.064673126 -0.058405526 -0.015093919 -0.1401171
-0.018998247 -0.047138825 -0.113899164 0.07919335 -0.06553629 -0.02725047 0.027797302 -0.096321866
-0.029538162 0.043961644 -0.029107057 -0.12992896 0.02912919 -0.023831455 -0.12754989 -0.10860043

conv2.bias f4 [10]
00000000: 94fd 03be 097d 743c 99bc 02bd 3ca1 1d3c
00000010: 90f5 06be 4348 cebd c8b9 a13e 5bb8 e0bd
00000020: 2757 53be 47c5 edbd
-0.12889701 0.014922389 -0.031918142 0.009620961 -0.13179612 -0.100723766 0.31587052 -0.10972663
-0.20638715 -0.11609893

conv3.weight f4 [10, 10, 3, 3]
00000000: e398 ba3d 6016 6bbd ec8c 4dbc 14cc 4d3c
00000010: e381 24bd df4d 45bd c83b ee3c 315f 873c
00000020: d15a 113c dfe7 803d 0cb3 0c3d 2d0c f33d
00000030: 0d1a d23d 061d 4fbd 02a4 a4bd c8bf 3b3d
00000040: d33d 9abc a101 17bc f07f 05be 0f0b 8fbb
00000050: eb96 06bd 1a3d bc3d 3260 07be 135a c43b
00000060: 8c2f a2bd 9cdc fabd d14b 613d a294 eb3e
00000070: 00cf 0e3f 665c cf3e 698e 47bd b750 013f
00000080: 218c a03e cd0a 8c3e 4092 d23e 50f8 103f
00000090: 5e0b c43d 4672 13be 7b3f 533e 276a 113e
000000a0: 83f3 66be 9f42 733e ef69 cdbd c3ae babe
000000b0: 7074 85bd 897a 2e3d 6bc0 e2bd 88a3 0cbe
000000c0: 9750 853d 7287 d73c 6fef c83c 9bf5 603d
000000d0: 8830 a83b 532d 803c 5608 a3be c654 8bbe
000000e0: 14ac b2be 9fa5 00bf d37c 06bf 0351 93be
000000f0: 154b a5be 6736 97be 5a3a ba3c d112 5e3d
00000100: 8941 893d 430b f93b 99c2 0c3e 4d56 c23c
00000110: 2fa9 913d 3e17 363c 4c98 2a3e 845c 85ba
00000120: 6514 ba3e a459 8a3e bca0 903e 6f63 873e
00000130: 5b9d 203e c5e1 e63e 00e1 7fbe 06d3 6fbe
00000140: b03a ad3e 7ad9 d53c 6535 593d aeca 8c3d
00000150: 3316 06bc 72f7 d1bc c107 65bd 1194 9c3d
00000160: ece4 0b3d b654 f23d 5f33 af3d 994d 26be
00000170: 97ea 8a3d 1269 c53c fcce 4bbd b87f b63b
00000180: 77c8 89bc 41f0 e4ba ed9d 973c 1043 863d
00000190: 8fe8 cfbd 6234 28bc 4629 06bd 3bc3 a0bd
000001a0: 550e 533c 6259 0abd 39e9 b3bd 9a03 c7bd
000001b0: 642a 1fbd c862 2a3b f1cb cebd bca9 6bbd
000001c0: d36b 6ebd fcd8 aa3d 4520 443d a610 f6bd
000001d0: 73d1 a6bc 2fec b53e d7d9 fc3d a789 a63e
000001e0: a571 66bd b859 26be 37e8 653c 7534 6d3e
000001f0: 3aad 3f3d 7e7a 4cbe b62e 3a3e 259f 9d3e
00000200: 7eee d63d 1c27 a6be 9d63 b53e d63e 323e
00000210: 16a0 02bf 0b33 ebbd ab29 e53d ffc1 b7bd
00000220: a5d8 e13c cfd7 85bd bcb0 0abc f6ef 3a3c
00000230: 8af6 b13c 766e 09be d589 dbbd 3661 f6bd
00000240: 4da4 04bf 85de cb3e fd98 433f f5a9 60be
00000250: 368c 0ebf 2609 2a3e 9106 d9bd 3ee0 37bf
00000260: 9ed7 59bd 960a b63d 85e5 e4bc 5c0b 953d
00000270: e253 2ebd 22b9 8bbd fb66 2ebd c205 e33c
00000280: c1c4 af3c 9842 b3bc 8172 4d3e ca5e 0f3e
00000290: 8fc2 e63e d880 15bf 4a61 41bf 4884 80be
000002a0: f5ca b5be 3d55 89be 8dc0 7abd 10db d03d
000002b0: 889c 523d e142 dc3d 4311 55bb c5ed 00be
000002c0: 8007 60bd 26b6 9cbd 9024 933d e754 60bd
000002d0: dfae 023e b585 dfbd 98d6 613d fee2 89bd
000002e0: 5d81 203d 3276 ecbc 73e7 fd3c fedf a4bd
000002f0: 29a7 0f3d 29f6 a93d 5fd2 11bc a3f1 493c
00000300: 31ad 743d ddc2 b0bd f20c cdbd 99a3 46bd
00000310: b48e a63c 807e 533d 4897 0dbd 89a7 ff3d
00000320: 5592 8b3c 644a a73c fcab 89bc a0fa 83bd
00000330: 0e97 97bd c504 033d 8f10 a73d 836d 993d
00000340: bdc9 8db9 3238 893e 27f5 68be 055f cbbe
00000350: ef67 08bf 3b41 67be f84c debe 3e1c 36bf
00000360: 3f03 9c3e 6183 773e eacd ff3e 6eba 053c
00000370: 11e6 edbb edd4 b0bd aa02 86bd f764 acbe
00000380: c1fc 0dbf c023 99bd 889e 8abd 972a 903d
00000390: b387 55bc 23b4 de3c 4998 bf3b cc90 373c
000003a0: 6eeb ae3c e44e 13bd e8c1 15be 03ab f6bb
000003b0: 566e 1fbb fa06 7e3d 9c0e 2bbd 1c7e 94bd
000003c0: 2053 05bf 86aa 06bf 1a88 ffbe 0658 cdbd
000003d0: 087e 6c3d 9b40 52bd 4527 d33b 8ed3 283e
000003e0: 5f63 5c3d b4e8 09bd 57d7 243d 7f89 00bb
000003f0: cf60 2b3f 2924 0e3f 1822 373f 6907 13bd
0.09111192 -0.057394385 -0.012545805 0.012560863 -0.040162932 -0.048169967 0.02908124 0.016524883
0.00887175 0.06294226 0.03435044 0.11867557 0.10258875 -0.05056479 -0.080390945 0.045837194
-0.018828308 -0.009216697 -0.13037086 -0.004365332 -0.03285877 0.09191342 -0.1322029 0.005992183
-0.07919225 -0.12249109 0.055003945 0.46011835 0.55784607 0.40500182 -0.048719797 0.50513786
0.3135691 0.2735199 0.41127205 0.56628895 0.095724806 -0.1439906 0.20629685 0.1420065
-0.2255383 0.23755883 -0.10029971 -0.36461458 -0.06516349 0.042597327 -0.11071857 -0.13734257
0.06509512 0.026309703 0.024528233 0.054921728 0.0051327385 0.015646612 -0.31842297 -0.27213115
-0.3489691 -0.5025272 -0.52534217 -0.28772745 -0.32283846 -0.29533693 0.022732902 0.054217163
0.06701953 0.0076002195 0.13746108 0.023722792 0.07112347 0.01111394 0.16659659 -0.0010174667
0.36343685 0.27021515 0.2824763 0.2644305 0.15685026 0.45094123 -0.24988174 -0.23420343
0.33833838 0.026104677 0.053029437 0.068745956 -0.008184004 -0.025630686 -0.055915598 0.07645429
0.034153864 0.118325636 0.0855472 -0.16240539 0.06783026 0.024097953 -0.049757943 0.0055694245
-0.016819222 -0.0017466621 0.018507922 0.0655576 -0.10151779 -0.010266395 -0.032754205 -0.07849737
0.012881835 -0.03377665 -0.08784718 -0.09717484 -0.038858786 0.002599882 -0.100974925 -0.05753492
-0.058208298 0.08342168 0.047882337 -0.12014894 -0.020363545 0.35531756 0.12346237 0.32526895
-0.056260724 -0.16245162 0.014032415 0.23164542 0.04679606 -0.19968602 0.18181881 0.3078548
0.104947075 -0.32451713 0.3542756 0.17406783 -0.5102552 -0.11484345 0.11189588 -0.08972549
0.027569124 -0.06535303 -0.008464988 0.01140975 0.021724004 -0.13421044 -0.10719649 -0.1203026
-0.51813203 0.39818206 0.76405317 -0.21939833 -0.55682695 0.16605052 -0.105969556 -0.7182654
-0.053184144 0.08888738 -0.027941475 0.07277557 -0.042560466 -0.06822421 -0.04257868 0.027712706
0.021456124 -0.02188234 0.20063211 0.14001003 0.4507031 -0.58399725 -0.75539076 -0.25100923
-0.35506406 -0.26822844 -0.061218787 0.10198033 0.05141881 0.10754944 -0.003251151 -0.12590702
-0.054694653 -0.076519296 0.07184708 -0.05476847 0.1276202 -0.109141745 0.055136293 -0.067327484
0.03918587 -0.028864954 0.030994153 -0.080505356 0.035071526 0.082989044 -0.008900254 0.012325677
0.05973548 -0.08630917 -0.10012235 -0.048495863 0.020331718 0.05163431 -0.0345681 0.12483127
0.01703755 0.020421214 -0.016805641 -0.06444287 -0.07401858 0.03198697 0.08157455 0.07491591
-0.00027043922 0.26800686 -0.22749768 -0.39720932 -0.5328359 -0.22583477 -0.43418097 -0.71136844
0.30471227 0.24171211 0.49961787 0.008162124 -0.007260092 -0.08634362 -0.06543477 -0.3367078
-0.55463797 -0.07477522 -0.06768519 0.07039373 -0.0130328415 0.027185505 0.005847011 0.011203956
0.021352496 -0.035963908 -0.1462475 -0.0075277104 -0.002432724 0.062018372 -0.04176198 -0.07250616
-0.52079964 -0.5260395 -0.49908525 -0.10026555 0.05773738 -0.051331144 0.0064438903 0.16486952
0.053805705 -0.03366919 0.040244427 -0.0019613204 0.66944593 0.55523926 0.715364 -0.03589574

conv3.bias f4 [10]
00000000: b9fd 283f 0718 273f 8d01 603c 9fb5 0ebe
00000010: 6dc7 8d3e d14a db3e 1f58 123f 751d 993e
00000020: d20a e83e 8133 13bd
0.6601215 0.6527104 0.013672245 -0.1393647 0.27691212 0.42830518 0.5716571 0.29905286
0.45320755 -0.03593779

conv4.weight f4 [10, 10, 3, 3]
00000000: 2255 54bd 2f76 d73e c33c e63e aa90 8dbf
00000010: 037d 25be daf9 9e3d 88f6 e9be 6833 00be
00000020: 6a99 0bbf d138 06bf 39e2 6bbe b064 96bd
00000030: 741b 30bf 80f6 73bf 18e0 55bf 71bb fa3e
00000040: 2d86 4c3e fa96 f5be bce9 5abe f806 1c3c
00000050: 4311 023e 7796 30bf 4581 b7be a286 5abe
00000060: 8976 cd3d 7c4c 7abe 7d81 81bd 7e5f 18be
00000070: 501e eebd d6fa a03c a54c d83d c8d4 0dbd
00000080: 5b28 7dbd e712 ac3d 3bc4 023d 3394 02bd
00000090: 0019 82be a34d 9dbe 4a2e 4e3b b347 6cbe
000000a0: 0fe1 6fbe b61b 01bf 88c1 dbbd 558b 3a3d
000000b0: b0c5 6a3e e96f febe 8507 68be 9262 823e
000000c0: aa26 66bc ff5f a6bb 3182 0cbd 1ed9 0f3e
000000d0: 849c c6bd cbfd bb3c 3f7a 273f 87d6 6d3e
000000e0: 3543 25be ce8e c23e af3b 243e 2a98 a6bd
000000f0: b1ac b33d 04c5 983d d154 183f 25b3 93be
00000100: bf46 debd eb83 6fbe 8533 a6bd 6a7c 9bbd
00000110: 9097 7fbe 34ca c6bd 8538 c53d 9661 9a3e
00000120: 5c38 153f 01b5 c93e a324 c23c 52b1 c7bd
00000130: fed6 843d 116b 763e 339f 4f3c cd93 d1bd
00000140: 11a7 7e3f f294 293e e472 fdbd 8db2 63be
00000150: fd6e 7e3d dcc3 5abc da0c 57bd cceb 0d3c
00000160: 4d47 01bd 556e 7fbd 8001 46be e26a 9bbe
00000170: ea47 103e df78 e93d 6508 8bbd bd4c 083f
00000180: ff1f 123e 1078 1cbf 82ba 153e 2eae fbbd
00000190: 1185 7dbc 3d4a 913d 6520 513f 3261 1b3f
000001a0: 02d3 82bf f926 f13e 6d71 943f ef08 3b3c
000001b0: 1c93 0abd cf44 d23d 620c a6be 4af7 9c3e
000001c0: 5947 193e 446d 00be e876 83be 268c 25bd
000001d0: f417 29bc 7fe5 2b3e db62 363e 668c bbbd
000001e0: 2a83 583d fbbf cb3c 1c1e 1bbd c4ce b1bc
000001f0: 32a1 bebd cc08 4a3d de83 f6bd dc84 c8be
00000200: 3158 1bbf 955e abbe 5d20 0dbf cfbc 2abf
00000210: d853 1abf 3992 bebe cbc7 73be b4ab acbd
00000220: 8ab9 d63e da30 793e 231c 013f 0370 033e
00000230: f634 0a3d 3970 593e 6f02 e23e 0058 be3e
00000240: 0a44 713d 73f0 a43e 6f13 2bbd 6fc0 0e3e
00000250: 96ff 213e 2706 12be 3fc0 b63e ee3a a23e
00000260: bb17 64be 419a d33c ac87 1cbf 2b2a 9cbe
00000270: 4987 e93e 0edf 0bbe 9367 b5be 7cb6 373e
00000280: 9f4b 273e 8009 81be aa57 cf3d 50be 9ebd
00000290: 38c9 8bbe ba07 c03e 9c99 b73e 7f3f 66be
000002a0: 3582 a23e d764 853e bf3d 0abe 7306 7a3c
000002b0: a8b0 413d 4f6c ea3d bcd0 fb3b 2d0f acbc
000002c0: 923d 9d3d fcfd 653d 3e33 f0bc ed0f 7abc
000002d0: 2d44 ef3d f9b7 983b 52c9 253d 1e16 263e
000002e0: 7db8 023c eb6b 7fbe 69af abbd ad46 08be
000002f0: 99a2 ddbd 488b 973e cf53 ed3e e1c2 453f
00000300: c5e8 973e 7556 693e cc1f db3e b5b1 263f
00000310: f549 0f3e 1a19 c9bc 1d6f 36bf 55e0 a1be
00000320: edc4 93be 6ccd 93bf 9b67 f3be fa56 983e
00000330: 9c0c c4be 5b30 2cbe 3d13 913d d681 04bd
00000340: 78e8 d73d 9698 78bd e3dc 0a3e bdcc 103c
00000350: 9e32 c53d 154d c83d 65c7 2fbd 017e 2abd
00000360: 396d edbe fb85 2d3c f5d2 5bbf aefb 13bf
00000370: 7ee5 21be bc33 8a3c 0eb0 ddbe 8bb6 9abe
00000380: ba13 8e3e 93d9 2fbf 8092 43bf 054d 14bf
00000390: f4aa 3bbf 8fa8 aabe 11f1 b4be 44fc 14bf
000003a0: 22b0 93be 45fd 3abe d658 9e3d 2813 d13e
000003b0: f23e 133f e7a8 8e3e 6227 8c3d 8809 003e
000003c0: 6e2d 91bd f11e c9be b652 1f3e f298 71be
000003d0: c40d 98bd ce70 643e 4fa4 1b3e 1a67 ce3e
000003e0: ad4d c7bd fabd e83e ceed a23e a87a 2b3e
000003f0: 527f 143e 8a92 4e3d 9936 c5be 2066 563d
-0.051839 0.42082354 0.44968233 -1.1059773 -0.1616097 0.07762499 -0.456959 -0.1251961
-0.54530966 -0.52430445 -0.23035516 -0.07343423 -0.6879189 -0.95298004 -0.83545065 0.4897113
0.19973059 -0.47966748 -0.21378225 0.009523146 0.12701897 -0.6897959 -0.35840812 -0.21340421
0.100323744 -0.24443239 -0.06323526 -0.14880177 -0.116268754 0.019650858 0.10561494 -0.034626752
-0.061806064 0.08402043 0.03192542 -0.031879615 -0.25409698 -0.30723295 0.0031460696 -0.23074226
-0.23425697 -0.5043291 -0.107302725 0.045543034 0.22926974 -0.49694756 -0.22659118 0.25465828
-0.014047304 -0.0050773616 -0.034303848 0.14047667 -0.09697822 0.022948166 0.6542091 0.23226367
-0.16138919 0.37999576 0.16038392 -0.08134492 0.08773173 0.07459453 0.5950442 -0.28847614
-0.108533375 -0.23390166 -0.08115295 -0.075920895 -0.2496016 -0.09706536 0.09629921 0.30152577
0.5828912 0.39395908 0.02369911 -0.09750618 0.06486319 0.2406428 0.012672233 -0.10233269
0.99473673 0.16560724 -0.12375429 -0.2223608 0.062117565 -0.013352361 -0.05250249 0.008662175
-0.03156214 -0.06236108 -0.1933651 -0.30354983 0.14089933 0.114000075 -0.067887105 0.53242093
0.14270018 -0.611207 0.14621928 -0.122890815 -0.01547362 0.07094238 0.81690055 0.60695183
-1.0220644 0.47100046 1.1597115 0.011415704 -0.0338317 0.102670304 -0.32431322 0.30657417
0.14968623 -0.12541682 -0.25676656 -0.04041686 -0.010320652 0.16786765 0.17811148 -0.09157638
0.052859463 0.024871817 -0.03787051 -0.021705039 -0.09308089 0.049324796 -0.120368704 -0.39163864
-0.60681444 -0.33470598 -0.5512751 -0.6669435 -0.60284185 -0.37220934 -0.23806684 -0.08431187
0.4193843 0.24335042 0.5043356 0.12835698 0.033741914 0.21234216 0.44142482 0.37176514
0.058902778 0.32214698 -0.04176658 0.13940595 0.15820155 -0.1426016 0.35693547 0.31685585
-0.22274677 0.02583039 -0.6114452 -0.30500922 0.45611027 -0.13659307 -0.35430583 0.17940706
0.16337441 -0.2520256 0.101241425 -0.07751143 -0.27301955 0.37505895 0.35859382 -0.2248516
0.31739965 0.26053497 -0.13500117 0.015260327 0.047287613 0.114464395 0.007684795 -0.02100333
0.07677759 0.05615042 -0.02932131 -0.015262586 0.116829254 0.004660603 0.040475197 0.16219375
0.007978556 -0.24943511 -0.08383066 -0.1330821 -0.10822029 0.2959845 0.46353003 0.77250487
0.29669777 0.22786887 0.42797697 0.6511491 0.13993056 -0.024548102 -0.71263295 -0.31616464
-0.2886118 -1.1547065 -0.47539982 0.29753858 -0.3829087 -0.16815321 0.070837475 -0.032350384
0.10542387 -0.060692392 0.13560824 0.008837876 0.09628795 0.09780327 -0.042914767 -0.041624073
-0.46372393 0.010591025 -0.8586877 -0.5780591 -0.158102 0.016870372 -0.43298382 -0.30217394
0.27749425 -0.68691367 -0.76395416 -0.5793002 -0.7330773 -0.33331725 -0.3534017 -0.58197427
-0.28845316 -0.18260677 0.07731788 0.40834928 0.5751792 0.27863237 0.06843449 0.12503636
-0.07088743 -0.3928142 0.15558895 -0.235935 -0.074245006 0.22308657 0.15199398 0.40313035
-0.09731612 0.4545744 0.31822056 0.16746008 0.14501694 0.05043272 -0.38518217 0.052343488

conv4.bias f4 [10]
00000000: f904 1dbd cf29 6e3d d35a 83bd 29f8 123c
00000010: df93 953e 1f2b 54bd d034 663d f74b 043e
00000020: 4aca b2bd b1a4 23be
-0.03833482 0.05814534 -0.06413808 0.008970299 0.2921438 -0.051798936 0.05620271 0.12919603
-0.0872999 -0.15980794

norm.weight f4 [10]
00000000: 32d5 133f de05 8b3e 51d5 bd3e aea6 f73e
00000010: 3fbe 423f cbd8 403f 7bcd 153f 4ba6 003f
00000020: 0804 c33e d67e e43e
0.57747185 0.27152914 0.3707681 0.48369354 0.7607154 0.753308 0.58516663 0.5025374
0.38089013 0.44628018

norm.bias f4 [10]
00000000: 43eb 08bf 968e 7abe 1dbb babe 6b9d c1be
00000010: 78d3 3bbf 7735 37bf 7bcd 19bf fd4d f9be
00000020: 8a9e aebe 6476 f2be
-0.5348398 -0.24468455 -0.3647088 -0.37815413 -0.7336955 -0.71565956 -0.60079163 -0.48692313
-0.3410533 -0.4735595

norm.running_mean f4 [10]
00000000: cdef 92c0 c9db e6be ba4b 9bbc e1ba 15c1
00000010: 8cd3 2fc1 6977 05c1 b948 c4c0 b5f2 92c0
00000020: 9001 21bf f6d6 c1c0
-4.5917726 -0.45089558 -0.018957008 -9.358125 -10.989147 -8.341653 -6.1338773 -4.5921273
-0.6289301 -6.0574903

norm.running_var f4 [10]
00000000: bc5d e041 0301 0541 8041 cd41 68c7 8e41
00000010: b74f ec41 b8a3 f241 08dc 8f41 d985 c041
00000020: 0778 9b41 9f02 5641
28.045769 8.312747 25.656982 17.847366 29.538923 30.32994 17.982437 24.065355
19.433607 13.37564

fc1.weight f4 [50, 810]
00000000: ab16 a6bd b81e 15bd db28 b2bd c5ad 75bc
00000010: 007a 88bd 83f0 07bd e5dc e33c 4cde 183c
00000020: 268e 473d 10ae 97bc e43a 1bbe 1455 4cbe
00000030: dbcc 42be c2c7 8bbe e2a8 60bd 190a ffbb
00000040: 6ed7 54bd 878b df3d 4323 0cbe 4f81 cfbd
00000050: d0d1 1cbd 6c62 e3bd 2e0d 84be 3aa2 d0bd
00000060: 9def 683a ab53 a23d 75e0 b5bd 7d77 d8bc
00000070: db7d a2bd 9aad d7ba 7d31 7c3d df3b bbbb
00000080: ad0d cc3c 0619 83bd 7fdb 0fbe 0102 97bd
00000090: b049 a1bd b094 ef3c e0a6 033d 09e8 083e
000000a0: 7194 21bd dfe9 34bd 2740 663d ec3a 70bd
000000b0: 784c 36bd 2fb2 5ebe 9319 2ebe 8893 0fbe
000000c0: cb92 05be 85b0 e9bd a70d 78bb 08ba 2cbe
000000d0: bc54 40bc d211 d33c fffd 13be b8c5 cd3c
000000e0: cdf3 44be 9b1f 70be f098 8abe f74c febd
000000f0: 4f74 b2bc 921a 04bd c14f c3bd 0565 76bd
00000100: 2a0e 43be 55b7 42be 3c64 2fbd 207d 1abd
00000110: be55 4b3d 9831 563b f995 16be 1d9d f9bd
00000120: c495 183c fada 463d 263b 00be 2924 1cbe
00000130: 5895 e9ba 814b 7cbd 9717 e2bc 0a91 d4bd
00000140: c5c6 cdbd d6fd 2fbd 7624 893c 3b58 153c
00000150: 9938 43bd 43ee 4ebd 44fe 19bd 5619 22bd
00000160: dbc4 70bd 56ff 163d c4fd 70bc f923 853d
00000170: 2bd4 1abe 0381 0bbe cb22 c8bc da2f 70bd
00000180: 6746 96bc 8871 f4bc 2a47 23bd cbad 6c3e
00000190: ee4e 823c 5e6a c13c 1041 473d 303a 05bd
000001a0: c59e 0bbd 44fc a1bd 89ec 01be e342 8ebd
000001b0: 3122 a33c 0699 04be 23da 34be b626 55bd
000001c0: 5de0 04bd 82ff 53bc 32df 103b c3ec d1bd
000001d0: 4990 19be 2aa8 783d 6cc8 02be 4b52 833d
000001e0: 50ae a5ba bef5 83bd 26ba 0cbd d432 8b3c
000001f0: b81a a8bd 7f05 00bd 71fe 4fbd 4349 123b
00000200: 56a1 d2bd 7caf a33c 9f3b c83d 85e9 a6bc
00000210: 16bb 15be d95b efbd 201c 2cbe 2bbb 9bbc
00000220: 4449 233e b915 c13b 4e41 53bd ec33 71bc
00000230: 2206 043e b144 74be c87c 29be 81e9 30bd
00000240: 24b5 d8bd 4161 99bd a59d 34bd f6dd 0dbe
00000250: 46cc 72bd 3afb d1bd 8dbf 6ebd 7ed0 03be
00000260: 22f0 d63d b882 fcbd 83fa 89be 2fb4 1f3e
00000270: 4262 03bd 908e 8e3c dc0a 3cbe 2e35 103e
00000280: bb31 41bd b488 c9bd 9f15 94bc 174b ac3c
00000290: 239b 54be 6d3f 3abd 5ba2 e5bc 62de 81bd
000002a0: b37a 59bd 9aa2 05bd 344d 0fbd 3532 99bd
000002b0: 5a7f 68bd 509e afbd 78b8 2dbd b6d6 2cbd
000002c0: c2b0 47bb e8b2 38bd 02bf 8dbd b6ca f6bc
000002d0: d2fc 98bd 12d6 9dbd b694 c4bd f452 0cbe
000002e0: 2610 cebb b5ef a1bc 98d1 70bd 3018 a7bc
000002f0: 60b9 2a3c 8573 27be 62c7 41bd c27f 0dbe
00000300: dd97 51bd b3f1 24bd 373f 0dbe a5f5 58be
00000310: 990f 41bd 84a5 75bd 066d abbd 4766 9abd
00000320: 60d1 f6bc 0812 e539 e935 edbc 8457 8fbc
00000330: 7b34 5cbd 85d2 32bd 9dc1 85bc 0c8d 83bd
00000340: e289 ebbd 17e7 cabd 88a3 33be 92c0 48bc
00000350: abf8 38bd f49a 84bd 63c9 d4bd d8db 9fbd
00000360: 1471 bbbd 997a 90be baf5 9bbd 5acd 46be
00000370: 3b60 9cbc 4f68 bfbd 8179 7dbc 0fc8 1e3e
00000380: 7907 abbc 7983 76be 4e50 f1bd 417f bebd
00000390: e445 97bd 68d3 64bd 0a8b 9dbc ecf0 d73d
000003a0: bffe 66bd 6256 8ebd 7fef 81bd a6f1 2c3d
000003b0: ab5f 93bc 76a0 adbc 1091 9dbc aa07 a5bb
000003c0: 84fa 70bd 92c4 babc bba8 4bbe 2e0f 3bbe
000003d0: 34e2 2cbe e38a 65bd e34e f3bd f329 83be
000003e0: 6d5e e1bd 1ebc 50be 418c d0bd 3f02 c2bc
000003f0: 6df1 13bd fc55 a6bd 58ae 8ebc fae5 223d
-0.08109792 -0.03640625 -0.08699199 -0.014995043 -0.06663895 -0.033188354 0.027815292 0.009330343
0.048719548 -0.018515617 -0.15159184 -0.1995433 -0.19023459 -0.2730084 -0.05484856 -0.007783186
-0.051963262 0.109152846 -0.13685326 -0.101320855 -0.03828603 -0.11102757 -0.25791305 -0.10187192
0.0008885803 0.07926115 -0.088807024 -0.026424164 -0.07934161 -0.0016454936 0.061570633 -0.0057139243
0.024908865 -0.06401257 -0.14048575 -0.07373429 -0.07875383 0.029245704 0.032141566 0.13369764
-0.039448205 -0.04416835 0.056213524 -0.058649942 -0.04450652 -0.21747659 -0.17001943 -0.14021122
-0.13044278 -0.114106216 -0.0037849934 -0.1686784 -0.011738952 0.025765333 -0.1445236 0.025118694
-0.19233628 -0.23449557 -0.27069807 -0.12417024 -0.021783976 -0.032251902 -0.09536696 -0.060154933
-0.19048372 -0.19015248 -0.0428202 -0.037716985 0.049642317 0.0032683369 -0.14705648 -0.1218817
0.009313051 0.048548676 -0.12522563 -0.15248169 -0.0017820997 -0.061595444 -0.02759914 -0.103792265
-0.10047678 -0.042966686 0.016741019 0.009115274 -0.047661398 -0.050520193 -0.037596002 -0.039574943
-0.058781486 0.0368646 -0.01470894 0.06501002 -0.15119998 -0.13623433 -0.024430653 -0.058639385
-0.018344117 -0.029839292 -0.03986279 0.23113172 0.015906777 0.02361029 0.048646033 -0.032526195
-0.03408696 -0.07909444 -0.12687887 -0.069463514 0.019913765 -0.12948999 -0.17661338 -0.05203887
-0.032440532 -0.012939336 0.002210569 -0.10250237 -0.14996447 0.06070725 -0.12771767 0.064121805
-0.001264045 -0.06443356 -0.034357212 0.01699201 -0.08208221 -0.03125524 -0.050779764 0.00223215
-0.10284679 0.019981138 0.09776997 -0.020375023 -0.14622149 -0.116874404 -0.16807604 -0.019010147
0.15945917 0.005892482 -0.05157595 -0.014721852 0.12892964 -0.23854329 -0.16551507 -0.043191437
-0.10581425 -0.07489253 -0.044095654 -0.13854203 -0.05927684 -0.10252996 -0.058288146 -0.12872502
0.104950204 -0.1232962 -0.26948938 0.15596078 -0.032076128 0.017401963 -0.18363518 0.14082786
-0.047166567 -0.09840527 -0.018076716 0.0210319 -0.20762305 -0.045470644 -0.028031519 -0.06341244
-0.05309553 -0.032625772 -0.034985736 -0.07480279 -0.056762077 -0.085751176 -0.04241225 -0.04219695
-0.0030470346 -0.045092493 -0.069211975 -0.030125957 -0.07470097 -0.07706846 -0.09598677 -0.13703519
-0.006288546 -0.019767622 -0.058793634 -0.020397276 0.010420173 -0.16352661 -0.047309287 -0.13818267
-0.05117022 -0.040269565 -0.13793646 -0.21187456 -0.047134016 -0.0599723 -0.08370404 -0.07539039
-0.030129135 0.00043691718 -0.02895637 -0.017497785 -0.053760987 -0.0436578 -0.016327674 -0.06423387
-0.115009084 -0.09907358 -0.17542851 -0.012252944 -0.045159023 -0.064748675 -0.10389974 -0.07805604
-0.09152427 -0.28218535 -0.07615228 -0.19414273 -0.019088855 -0.09346067 -0.015470863 0.15506004
-0.020877587 -0.2407359 -0.11782895 -0.093016155 -0.073863775 -0.055865675 -0.019231338 0.10543999
-0.05639529 -0.0695007 -0.063445084 0.04222264 -0.017989954 -0.021194678 -0.01923421 -0.005036314
-0.05883266 -0.02279881 -0.19888584 -0.1826751 -0.16883165 -0.056040656 -0.11880281 -0.25617942
-0.110043384 -0.20384261 -0.10183001 -0.023682712 -0.036118913 -0.08121869 -0.017417118 0.039770104

fc1.bias f4 [50]
00000000: 77be 01be b4d9 ad3e a596 bebd 09d8 62bd
00000010: 0c30 2ebe 4e59 d6bc aa04 203f 9332 8abd
00000020: 2edc 593e f734 cbbd 4dc3 fd3b 8e5a a9bd
00000030: e690 57bd 5ab2 26bd b955 38bc 5f74 0a3e
00000040: cf13 47bd 3cf3 55be 8788 85bd 2666 a3bc
00000050: 572d 88bd 20e1 31bd 113a cbbc 7d6c 193f
00000060: ba3b 62be bcc2 8cbc 6075 373b acea 953e
00000070: 37bb 873f 90e7 863e e91c 0dbe b297 b63e
00000080: a86a 2a3f 7c8f 1f3f 2419 11bd 41e6 18bd
00000090: 7bb2 8dbd 63b9 65bb 3f3f 33bc f8af 183c
000000a0: 5902 613e 8189 d43d de01 55bc 1612 aabb
000000b0: 8353 9bbb 203f fc3d 25a2 adbe e985 04be
000000c0: 9fb0 74bd 709b 3cbe
-0.12670313 0.33955157 -0.09306077 -0.05538181 -0.17010516 -0.02616563 0.62507117 -0.067479275
0.21275398 -0.099222116 0.007744229 -0.08269225 -0.05262842 -0.040697433 -0.011250907 0.13520955
-0.048602875 -0.20893568 -0.06520181 -0.01994617 -0.06649273 -0.043427587 -0.024807962 0.59931165
-0.22093096 -0.0171827 0.0027993545 0.29280603 1.0604008 0.26348543 -0.1378056 0.3566261
0.66568995 0.62328315 -0.035424367 -0.037328962 -0.06918808 -0.0035053126 -0.010940372 0.009319298
0.21973552 0.10377789 -0.013000933 -0.0051901443 -0.00474018 0.12316728 -0.3391277 -0.12941708
-0.05973875 -0.1841867

fc2.weight f4 [7, 50]
00000000: 6469 4d3e 1b29 423e a412 0cbe a02c abbd
00000010: 93a0 193d 8821 d5bc ec49 87be b60e d3bd
00000020: 4a6a 05be b08e 2fbc 2d38 bfbd b0d1 21bd
00000030: fe97 39bd 2122 b03d d6c5 1c3d 2363 65bd
00000040: dad8 5fbd 53d8 12bc 9cf2 113d 2771 453d
00000050: 465d a1bd e328 cd3d 571d 96bd 05e8 f9bd
00000060: 3bfa 32bd f359 16bd 3210 1cbc ee0d 0ebe
00000070: f9f8 013c e62f 693e fb91 12be a8e2 b9bd
00000080: 30dd 623e cc78 773d e15b 023d 9e3a a7bd
00000090: 5919 aebd a016 f83c 4eb0 103d 7ec2 1abd
000000a0: 28b3 5cbe c19a d23e 545a 03be 963b a9bd
000000b0: 01d0 b83d e415 723e 9234 af3c cc8f 6ebd
000000c0: 1d21 a13c 0b17 8ebd 958f c83d d8cd 8c3d
000000d0: 9b62 eabd ecdc 3bbc 2d6b 67be 4f55 c23c
000000e0: 236d 3ebe e574 833d 81db da3b f512 15be
000000f0: de3b 21be 13c0 1f3c 96a7 6cbc 819a 4fbd
00000100: 67cb bd3d e7e5 b7bd 0fda 043c 3368 753d
00000110: 6227 6fbd c243 ffbd 3d15 3b3b bd6f 493d
00000120: af56 f83a 2275 48be 490c 6abd 5164 14bc
00000130: e241 dd3d a675 cebe 5659 15bf 3986 78be
00000140: e684 b1bd 50b7 7ebe 4542 c7be 8398 043f
00000150: 6c15 2ebd 8341 a23d 530c 733c a903 c63c
00000160: 535d 413a 8450 febb 5df8 a5be 80e2 8cbf
00000170: 5aeb a03e 0343 af3d a5d4 5d3d 4063 633e
00000180: 7334 103e b47b 7abd 5185 8ebb f6e7 08bf
00000190: 2d54 2bbe debc 043d 8e18 253c 77ef 5cbd
000001a0: f48b a9bd a2a7 99bd 7bef 30be fb84 3c3c
000001b0: a487 04be 8d76 68bd a596 0bbb 3011 813c
000001c0: b7eb d9bd f5a8 933c 4089 f73d ff53 683e
000001d0: cebd 10be 2ea4 5e3d 37eb a6bd 5b5b b4bc
000001e0: 8f9c 0a3d 849c dd3d 9e8b be3d 2a63 73be
000001f0: 2da5 7ebd fe33 2fbd d387 2fbe 75b1 2d3e
00000200: 4cc3 15bd e632 cd3d 0392 b4bc d2aa 2cbd
00000210: 90a0 85bd a5bf b33d e5e9 adbd 092d a6bd
00000220: 0761 623d f650 8c3d 0cb5 37bd 0f48 acbd
00000230: b03f a73c f2d5 e6be 83cd 01be 567c 44bd
00000240: 9736 c03d 0ed6 eb3d ffb7 7cbb a0cf 36be
00000250: 0419 89bd d3e5 683d 435b b83b 0e28 b4be
00000260: f68f 88bd 698b 4e3a 35d7 58be 3f0f d6bd
00000270: a9f8 f23e 1f3a 9d3c 4da4 27be 5da5 6f3d
00000280: efb0 9e3d 867a 5e3d 8d35 8dbd 079f 8ebc
00000290: 08ac 67bd 89cf 61bd 53a0 d5bd e994 0d3d
000002a0: e48d 27bd 6195 843d 00e1 183d cc2a 83bd
000002b0: 6ad0 6abd f996 a53e 96fb d43e 8c04 adbc
000002c0: 3ef4 59bd a8be 1dbe 13c7 5d3e 0204 88be
000002d0: 9951 d0bd 1935 21bc f614 453d e5fd 65bd
000002e0: 3721 b0bd 921c 873d 6a4c d53d ad75 ddbc
000002f0: 4776 a4bd bbc6 303d 83d4 ddbd 3236 5cbe
00000300: 7647 19be 2607 68bd 3fc8 5b3c 68da 113e
00000310: 0b9f 9e3d 32c3 b2bb 19b8 b53c 89f0 e4bd
00000320: 8aaa 86bd cdad 323d bc2d ec3d a9de 953c
00000330: 1f2c f9bc ee22 a73d 4582 84be 3b13 a33d
00000340: 4d7f 58be 7bf8 e6bd dba5 90bd f6d0 753d
00000350: 9b42 aabd a588 afbd 2d22 84bd f8eb b0be
00000360: 1e66 bb3d 0444 f23c 95e4 663d e01b 873c
00000370: 4cb8 113d d616 b63c 240b 83bd 2062 9abe
00000380: 59a7 b1bd 57a9 a5bd 1dba fcbd 365f ae3d
00000390: dad2 d43d 1a59 9f3c 321e 8b3d f03d 65bd
000003a0: 101b 29bd 4af5 2f3e 6537 6dbd 70df 2bbb
000003b0: 00a4 973d 932f 9abd a78f 62bd e44b 003e
000003c0: aeb6 debd 3e44 afbe 60de 94be 03d4 e03b
000003d0: c3f5 69bd 15b0 74bd 49fa d23c 9da3 e5bd
000003e0: ad16 cc3b adc7 a53c 1890 98bd 5e4b 01bc
000003f0: 288f 9b3d e858 003d 9a51 97be 9797 223d
0.20059735 0.18960993 -0.13678986 -0.08358121 0.03750665 -0.026016966 -0.26423585 -0.1030554
-0.13028827 -0.010715172 -0.093368866 -0.039506614 -0.045310967 0.086002596 0.03827461 -0.056002747
-0.054650165 -0.0089627085 0.03563176 0.048203614 -0.078791186 0.10017564 -0.07329815 -0.12202457
-0.04369567 -0.036706876 -0.009525346 -0.13872501 0.007932895 0.22772178 -0.143135 -0.090764344
0.22154689 0.060417935 0.031825904 -0.08165477 -0.085009284 0.030284226 0.035324387 -0.03778314
-0.21552718 0.41133693 -0.12827426 -0.08263318 0.090240486 0.23641163 0.021387372 -0.058242604
0.01966911 -0.06937989 0.09793011 0.06875199 -0.11444589 -0.011466246 -0.22599478 0.023722319
-0.1859632 0.0641878 0.006678999 -0.14558013 -0.15745494 0.009750384 -0.0144442525 -0.050684456
0.092673115 -0.08979397 0.00810863 0.059913825 -0.058387168 -0.12464096 0.0028546595 0.049178828
0.0018946732 -0.19575933 -0.057140622 -0.00905712 0.10803582 -0.40324134 -0.5833944 -0.24269952
-0.086679265 -0.24874616 -0.38917747 0.51795214 -0.0425009 0.079226516 0.014834481 0.024171667
0.0007376272 -0.007761063 -0.3241605 -1.1006622 0.3142956 0.08557703 0.05415787 0.2220583
0.14082508 -0.06115313 -0.0043493886 -0.53478944 -0.1673133 0.03240668 0.010076655 -0.05393931
-0.08278647 -0.075026765 -0.17278855 0.011506314 -0.12942368 -0.056753684 -0.0021299508 0.015755266
-0.10640662 0.0180249 0.12086725 0.22688292 -0.14134905 0.054355793 -0.081503324 -0.022016218
0.033840712 0.108208686 0.093039736 -0.23768297 -0.062169243 -0.042774193 -0.17141657 0.16962226
-0.036563203 0.10019474 -0.02204228 -0.042155094 -0.065247655 0.08776788 -0.084918775 -0.081140585
0.055268314 0.068513796 -0.044850394 -0.084121816 0.02041611 -0.45085102 -0.12676053 -0.04797014
0.09385412 0.11515437 -0.0038561819 -0.1785264 -0.066942245 0.056859802 0.0056261136 -0.3518681
-0.06668083 0.000787905 -0.21175845 -0.10452127 0.47455338 0.019192753 -0.1637127 0.058507312
0.07748591 0.054316066 -0.068949796 -0.017409815 -0.056560546 -0.05512956 -0.1043097 0.03456584
-0.0409068 0.06473804 0.03732395 -0.06404647 -0.057327665 0.32341745 0.41598195 -0.021120332
-0.053211443 -0.15404761 0.21657972 -0.26565558 -0.101718135 -0.00983932 0.048115693 -0.056150336
-0.08600085 0.06597246 0.104149655 -0.027033651 -0.08030372 0.043158274 -0.10831549 -0.21505049
-0.14968666 -0.056647442 0.013414442 0.14243472 0.07745179 -0.005455398 0.022182511 -0.11178691
-0.065754965 0.04362278 0.11532161 0.01829465 -0.030416546 0.08160959 -0.25880638 0.07962652
-0.21142311 -0.11277863 -0.070628844 0.060013734 -0.08313485 -0.08570985 -0.06451831 -0.3455503
0.09150337 0.029573448 0.056370337 0.016492784 0.03557615 0.022227686 -0.06398609 -0.30152988
-0.08674497 -0.0808894 -0.12340186 0.08514254 0.10391779 0.019451667 0.06792869 -0.05596727
-0.041285574 0.17183414 -0.057914156 -0.0026225708 0.074043274 -0.07528605 -0.05531278 0.1252895
-0.10874687 -0.34231752 -0.2907591 0.0068612113 -0.057119142 -0.059738237 0.02575411 -0.112128474
0.006228289 0.020236814 -0.07449359 -0.007891504 0.07595664 0.031334788 -0.29554445 0.03969535

fc2.bias f4 [7]
00000000: 5dcc 39be 7489 6cbf 5401 0bbe 6959 373e
00000010: c81c ab3e 6155 333b 94d4 963e
-0.18144365 -0.92397237 -0.13574725 0.17905201 0.33420396 0.0027364122 0.2945906

localization.0.weight f4 [8, 1, 7, 7]
00000000: a687 803b aad4 a53d 0ccd 8d3d 3bdf 813c
00000010: 8556 823d 0141 80bc 48fc 353d 1742 e9bd
00000020: 7ce9 59be 727e 0cbe 51db 5cbd 1d92 bd3d
00000030: 8515 613d 7b09 673e 4ddf 853d 8969 e53b
00000040: 7bff d83d b511 453e 6eed 433e b28a 1e3e
00000050: a9ce eebc dcf8 06be 4474 81bd a569 d63d
00000060: 93a1 343e 0771 5abd c072 fcbc c35d 223e
00000070: 0346 acbd 3fa6 683d b290 e03d de1e 1bbd
00000080: f17b b6bd 8a9d 8abd 7b88 243d d444 35bd
00000090: 50f1 f4bd 7309 f63d fc33 7e3d 5a50 cfbd
000000a0: 7379 9abc 51f7 c53d e91b a0bd 344e c43d
000000b0: ba9a 253a 07c6 95bd 69ed 1d3e f870 383d
000000c0: 20ac e43c cc96 303d 86e0 18bd eec1 12bd
000000d0: f4d5 a23d 594e 983d d956 01bd 41d4 1f3e
000000e0: 25dc aabd 454b a13d 1a44 27be 2bce 0bbe
000000f0: 791c c6bd 6822 6d3d 995a 90bd 6980 823b
00000100: 0d11 3ebd 6f98 87bd d4b5 95ba 258b 883d
00000110: 6f9f c6bc ebc5 bfbd 4e72 11be cb45 213d
00000120: 3f95 2fbe 8102 cdbb cab7 a3bd 1360 35bd
00000130: 5a71 1cbe 4b24 65be 380a 893c f8a5 953c
00000140: e4c9 fbbd 5a2c 05bd 2354 353d 8b01 22be
00000150: 6ee7 633d a5f4 0cbe 4eff babb 9867 2fbd
00000160: 3378 02be 5741 983d 047a 423b 2f62 903c
00000170: b502 c73d e631 68bc 0eb7 02bd 30dc dd3d
00000180: ff31 86bd 2384 613d 6c4d 033d a58c 6abd
00000190: 89ff 2dbe b40a acbd 9c2b b4bd 9115 7bbd
000001a0: ae19 633c 89a3 b0bd ddf9 11be f57b 4fbe
000001b0: d90c 713d 087f 353c 4004 11be b8ba 34bd
000001c0: 19dc 40be fcde 12be 204a e1bd 3081 8d3d
000001d0: 06b3 093d 1d4b ba3c 8ba9 633d 2ed4 e4bc
000001e0: 5649 7fbb ded1 24bc c1b9 b2bc 30b9 34be
000001f0: 4c54 d1bd e8cd 153d 10e0 df3d aa52 a9bd
00000200: 7ecc 27be 3fe5 37be b96c 3fbe 3719 a9bd
00000210: 7190 33be 4d9f 913c 38df d2bb f73a 25bd
00000220: 8e6c 5dba 60dc e0bd a41c 9dbd bb01 10be
00000230: 8f9b 80bd 96d3 343d 8969 cc3d 737f 8fbd
00000240: 3af6 113d 9783 e83d 26ce a838 1f08 48be
00000250: eb19 03be 1c20 283d 8c0b afbc 956b 883d
00000260: a09c a3bb c7c4 cebd 9781 893d 027f 08be
00000270: 697b 913d f146 b7bd dd8d f13c 76c6 92bd
00000280: 5972 0fbe 1739 24be 44e7 91bd 15ba d9bd
00000290: 5920 22be 71c1 4c3d 4745 09be 4051 e0bd
000002a0: 88d8 a23c 9a5d 20be 5102 6c3d 8e5a 2abe
000002b0: cbeb 273c 25be 57bc 519d bf3c 548d 5a3d
000002c0: 8d75 c3bd 15b5 1ebd fb22 edbd ebdb ae3d
000002d0: feb1 76bd 5c57 a73c 522a b8bd a0d7 173d
000002e0: 8542 f33b 0091 41bd 2f8f df3d e0d3 f3bc
000002f0: c9fa b5bd 8082 c83d 7534 dc3c ad03 b0bd
00000300: aabc 4ebd b948 043d 5e87 d3bd 598e 13bc
00000310: 56e1 b23b 714f 32bd 9b8b 43be 1325 873d
00000320: 196d 15bd 0419 b63d 1573 b83d 0a99 ecbd
00000330: 8e7d 6ebd 382b c13a f8b3 0ebe 7eb0 fdbd
00000340: e34f e2bc f970 5e3d d114 36be ccfa 97bd
00000350: 05c0 17be 5b97 1b3d 0b6b e3bc 0f87 3bbd
00000360: 618d 9cbd 27b7 36bd a84b 15bd da29 5ebd
00000370: 91fa 7fbd d8b0 26be 236a 7c3d 9fe1 77bd
00000380: 0596 713d 2ee1 373d 28e5 a4bd 2c49 dbbd
00000390: 4075 29bd f629 08be 8f66 ffbd 98e6 c8bd
000003a0: d8c6 c0bd d664 b03d 309e c93d 8e81 a53d
000003b0: 5bd3 8abd 93b9 09be 4c3a 633d 8642 f7bd
000003c0: 1dd9 b53d fd47 e53d a43d 683d f58f a1bd
000003d0: a682 f9bd 1ae1 08bd df32 0abe f047 423d
000003e0: 85f1 523d bcd9 91bd 5a24 e23b 70c2 35bb
000003f0: 256d dbbd bc2b abbb 781e d83d 56cd 37bc
0.0039224206 0.08097203 0.06923875 0.015853515 0.063641585 -0.015655996 0.044430047 -0.11389559
-0.21280473 -0.1372011 -0.053920094 0.092563845 0.054952163 0.2256221 0.06536732 0.007001106
0.10595604 0.19245036 0.19133541 0.15482596 -0.029151278 -0.1318087 -0.06321004 0.10469369
0.1763976 -0.053330448 -0.030816436 0.1585608 -0.08411791 0.05679917 0.109650984 -0.037871234
-0.08910359 -0.067683294 0.04016922 -0.044255093 -0.11960089 0.12013521 0.062061295 -0.10122748
-0.01885674 0.096663125 -0.078178234 0.095852286 0.00063173065 -0.07313161 0.15422596 0.04502961
0.027914107 0.04311256 -0.037323497 -0.035829477 0.079509646 0.07436819 -0.031576965 0.15608312
-0.083427705 0.07875685 -0.16334572 -0.13652866 -0.096733995 0.05789414 -0.0704853 0.003982593
-0.04640298 -0.06620871 -0.0011421987 0.06667165 -0.024245946 -0.09363922 -0.1420376 0.0393732
-0.17146777 -0.006256402 -0.07994039 -0.044281077 -0.15277615 -0.22377126 0.016728505 0.018267617
-0.12294367 -0.032513 0.044269692 -0.15820901 0.05564063 -0.137652 -0.005706704 -0.042823404
-0.12741165 0.074343376 0.0029674778 0.017624943 0.09717313 -0.014172053 -0.031912856 0.10833013
-0.06552505 0.055057656 0.032056257 -0.057263035 -0.1699201 -0.08400479 -0.0879738 -0.061299864
0.013861103 -0.08624942 -0.14255472 -0.2026213 0.058850143 0.01107765 -0.14161777 -0.04412338
-0.1883396 -0.14342874 -0.11000466 0.06909406 0.033617996 0.022740895 0.05558161 -0.027933206
-0.0038953624 -0.010059802 -0.02181709 -0.17648768 -0.102211565 0.03657332 0.109314084 -0.0826772
-0.16386601 -0.17958544 -0.18693818 -0.082567625 -0.17535569 0.017776156 -0.006435301 -0.040339436
-0.0008446657 -0.10979533 -0.076714784 -0.1406316 -0.062796704 0.044147097 0.09981067 -0.07006731
0.03563521 0.11353224 8.0492624e-05 -0.19534348 -0.12802856 0.041046247 -0.02136781 0.06661145
-0.0049930364 -0.10096126 0.067141704 -0.133297 0.07103617 -0.08949078 0.029486591 -0.0716676
-0.14008464 -0.16037403 -0.071241885 -0.106311955 -0.15832652 0.049989168 -0.13405333 -0.10952997
0.01987864 -0.15660706 0.057619397 -0.16636106 0.0102490885 -0.013167893 0.023390444 0.053357437
-0.095439054 -0.038746912 -0.115789376 0.0853804 -0.06022834 0.020427398 -0.08992447 0.03707087
0.007423701 -0.047257423 0.10915982 -0.029764116 -0.08885724 0.09790516 0.026880482 -0.08594451
-0.050472893 0.032295916 -0.103285536 -0.009006106 0.005458991 -0.043532792 -0.19096224 0.06598868
-0.036480997 0.0889149 0.09006325 -0.115526274 -0.058225207 0.0014737612 -0.1393584 -0.12387179
-0.027625984 0.054306958 -0.17781378 -0.074208826 -0.14819343 0.03798614 -0.027761003 -0.0457831
-0.076441534 -0.04460826 -0.036449105 -0.05423913 -0.062494818 -0.16278398 0.061624657 -0.060517903
0.05898096 0.044892482 -0.080515206 -0.10707316 -0.041371584 -0.13297257 -0.124707334 -0.09809607
-0.094129264 0.08612983 0.09844625 0.08081351 -0.06778594 -0.13449697 0.055475518 -0.12073235
0.08879302 0.11195371 0.05669941 -0.07888786 -0.12183122 -0.0334178 -0.13495968 0.047431886
0.051499862 -0.07121608 0.006901306 -0.0027734302 -0.10714177 -0.0052237194 0.105526865 -0.0112183895

localization.0.bias f4 [8]
00000000: 6fb7 d33c 5a2e b03d 441e a0bd f95a c0bd
00000010: b0f6 babb 941d 223d 7885 ebbd 8cc1 14be
0.025844304 0.08602591 -0.07818273 -0.09392352 -0.005705677 0.03957899 -0.115000665 -0.14526957

localization.3.weight f4 [10, 8, 5, 5]
00000000: a050 91bd 4caf 703d 7e10 403d 27cc a53b
00000010: 7a18 43bd 5dab 81bd ca97 04bd ab66 9c3c
00000020: 52ce aabc 4849 da3a feeb e1bc b2f2 7b3b
00000030: b45c 083c 55c3 9ebd 09fc 43bd 5610 d2bc
00000040: 1b89 a33a 136a a4bd 6bcd 543c d6a3 1b3d
00000050: 455c 5fbd 85ce 68bd 6dc2 19bd bd23 55bd
00000060: 3510 623a 2164 86bb 8aa5 d1bd 34fc 0fbd
00000070: c7de 133d b86e 7bbd eddc bcbc 2f09 b5bd
00000080: 955b d23c 4882 8e3c d1a9 b6bd 3150 fe3c
00000090: 49d0 84bd 7b96 2ebd 2bea 8fbd fae0 85b8
000000a0: cdb4 7cbd e0a1 f5ba 682b f53c 9b6d d2bb
000000b0: 6441 0a3d 5815 c93c 14b6 033d 0f1a 79bc
000000c0: 3882 babd bcf7 023a f116 fe3b 8bdf 09bd
000000d0: 30ca 08bd e94c 89bd 9978 68bd c539 1abd
000000e0: e4fb 433d 7b61 d6bc af4b 82bd 254d 603c
000000f0: 74be 99bd 516e 6cbd 628b bbbd 3c2a 4e3b
00000100: 2eec 8b3c a087 1d3c 45e0 90bd f0c3 2abd
00000110: 6d70 84bd 876e 4ebd 651f 403b 9208 9abd
00000120: 09a5 a4bc 0cda 0fbd e1cf b43b 7eab ee3c
00000130: 4846 43bd ef35 8fbd 1384 fd3c cb1c d0bc
00000140: 2edd f23c dd82 39bd 69e0 29bd a2c2 24bd
00000150: 30eb 80bb a620 9dbd 3e52 a1bc 0251 2f3c
00000160: 5ca2 50bc 6d97 e4bc a552 bc3c adf4 953c
00000170: ab90 17bd 2e65 4bbd f241 8e3b 6501 803c
00000180: 1713 d6bd 69cf 8abc 5036 91bc 3f95 8bbb
00000190: c3f0 0b3d 7995 34bd 2b92 d4bc 56ce e0bd
000001a0: ad3d 583c 35fc 96bb e3bf bebc 0bc8 73bc
000001b0: e772 073d 7e58 5b3c 2235 bebc d1f0 2abd
000001c0: 669b 233d 1db2 223d 79ce d93c 8c28 b03b
000001d0: c7d8 73bc d6e5 f5bc ba09 7e3b c70f 72bd
000001e0: c281 83bd 78fd d1bc 84f2 16bd a941 81bd
000001f0: 0107 abbc 6b49 a1bc 483e 58bd 494c 7cbd
00000200: 7a82 f6bb d5c0 70bd dee3 1a3d 36b2 a3bd
00000210: 1aae 69bd 6df1 8d3d 4367 e33c b739 033c
00000220: 4d59 00bd 0b5e 87bc f3b2 71bb 161a 4d3d
00000230: ed7a a5bd d609 83bd 1775 20bd 7fee a4bc
00000240: 4b51 b0bd 7d14 fb3c c75c 223d c7c3 1a3d
00000250: 1bbc 333d 1172 f13b 7f05 e4bb f525 d73c
00000260: c254 7e3b ee10 ed3c adf2 95bc 0167 e9bb
00000270: c811 933d 6af1 7bbd 035c 6dbd 1e98 65bd
00000280: 477c 29bc 840f 803d 40a8 e13b 3c49 babc
00000290: 88e1 16bd 2c8b a1b9 3ee3 923d 177c 083b
000002a0: 3f47 073d bf76 17bd dfc1 c2ba aa58 46bd
000002b0: ddfb 77bd 769a 993b 5cb6 143d 1325 a03c
000002c0: 01cb 3b3d 32f2 30bc 51ae 353c f004 59bc
000002d0: 1245 fcbc 4f7a 083b 921d cebc 39df 0d3d
000002e0: 1c87 acbd 6592 73bd 37bf 1a3d 59d9 a5ba
000002f0: ffa7 88bd 7277 343c f3b2 c03c 7dc4 8fbc
00000300: ca51 573d 02db afbd 91a4 b2bd 9ba7 8bbd
00000310: bf7a 673c 0d7f 68bd 4507 12bd a684 8bbd
00000320: f5ad 2bbd d142 55bd 9321 323d dfe1 343d
00000330: b44f dabc 60d9 24bd 42ba 8ebd 2117 7cbd
00000340: 1d02 69bc d01d 7ebd 48b7 d13c 09c7 43bd
00000350: 1d6a 4f3c a19b 67bd 21b3 0e3c 8d92 94bc
00000360: 6740 1cbd ed70 94ba 5ba0 4cbb f9ed 4a3d
00000370: 0fd9 bd3c ad21 8bbc e039 a53b f8fd 803c
00000380: 3d3d d6bd 87ab c63c fb06 0c3c ab60 513c
00000390: e154 1cbd 5d92 64bc e373 9a3c ada3 5ebc
000003a0: 06cc b23c 0dd6 c43c 1371 e4bd 6e9c 8dbd
000003b0: 8c79 86bc 8551 97bd 6e87 6fbd 024d 4ebc
000003c0: 7637 c03c 47ff 303d 13be 07bd 3f31 d03c
000003d0: 4952 933b 4181 563d 0e03 bb3c 0a65 b9bd
000003e0: 9eaa b6bd e7a9 91bd 5202 b83c fd4d 06bd
000003f0: e847 d4bc 721b 9bbc a379 4fbd 4e9b c7bd
-0.07095456 0.058760926 0.04689073 0.0050597372 -0.047630765 -0.06331513 -0.03237132 0.019091925
-0.020850334 0.001665392 -0.02757835 0.0038444218 0.008322883 -0.077521004 -0.04784778 -0.025642555
0.0012476774 -0.080280446 0.012988429 0.037998043 -0.054531354 -0.056837577 -0.037538934 -0.052036036
0.0008623631 -0.0041012918 -0.10236652 -0.03515263 0.03610113 -0.061384887 -0.023054564 -0.08839642
0.025678435 0.017396107 -0.08919109 0.031044098 -0.0648504 -0.042623978 -0.07027086 -6.383839e-05
-0.061695863 -0.0018740259 0.029927924 -0.0064217574 0.033753768 0.02454631 0.032156065 -0.015203967
-0.091068685 0.0004996022 0.0077541997 -0.033660453 -0.033395946 -0.067041226 -0.056755636 -0.03765275
0.047847643 -0.02616953 -0.06362092 0.013690268 -0.07507029 -0.057722393 -0.091574445 0.003145828
0.017080393 0.009614855 -0.07074026 -0.041690767 -0.06466756 -0.050398376 0.0029315588 -0.07521166
-0.020098226 -0.035120055 0.005517945 0.029134508 -0.047674447 -0.06992709 0.030946767 -0.025404355
0.029646482 -0.045290817 -0.04147378 -0.04022468 -0.0039342865 -0.07672243 -0.019692536 0.010700466
-0.012734022 -0.027904237 0.022988627 0.018305147 -0.0370032 -0.04965704 0.0043413574 0.015625665
-0.1045286 -0.016944604 -0.017726094 -0.004259735 0.034165155 -0.04408786 -0.025948605 -0.109768555
0.013198298 -0.004607702 -0.023284858 -0.014879237 0.033068564 0.013387797 -0.023218695 -0.041733567
0.03994312 0.039720643 0.026587712 0.0053759273 -0.014883227 -0.03001682 0.0038763122 -0.059097078
-0.06421234 -0.025633559 -0.036852375 -0.06311352 -0.020877363 -0.019688329 -0.05279377 -0.06159619
-0.0075228782 -0.05877765 0.037814967 -0.079929754 -0.0570508 0.06930814 0.0277592 0.008009366
-0.031335164 -0.016524335 -0.0036880344 0.050073706 -0.08080087 -0.063983604 -0.039174166 -0.020133255
-0.086092554 0.030649418 0.03963926 0.037784364 0.043880563 0.007368334 -0.006958663 0.026263217
0.0038807844 0.028938737 -0.018304193 -0.0071228747 0.07181126 -0.061509527 -0.057949077 -0.056053273
-0.010344571 0.06252959 0.006886512 -0.022739999 -0.036836177 -0.00030812004 0.07172249 0.0020825916
0.03302693 -0.03697848 -0.0014858803 -0.0484244 -0.06054293 0.0046876026 0.036306724 0.019548928
0.045847896 -0.010799931 0.011088924 -0.013245806 -0.030794654 0.0020824855 -0.025160585 0.03463671
-0.084242076 -0.059465785 0.037780013 -0.0012653276 -0.06672668 0.011014806 0.02352283 -0.017549748
0.052568235 -0.08586694 -0.08722795 -0.068190776 0.014128386 -0.05676179 -0.035651464 -0.0681241
-0.041913945 -0.052065674 0.04348905 0.04416072 -0.026649334 -0.040246367 -0.069691196 -0.061545495
-0.014221695 -0.06204015 0.02560009 -0.047797237 0.012659577 -0.056544904 0.0087097 -0.018136287
-0.038147356 -0.0011325158 -0.003122351 0.049543355 0.02317479 -0.016983831 0.0050422996 0.015746102
-0.10460899 0.024251712 0.008546586 0.012779395 -0.038166884 -0.013950911 0.018854087 -0.013588828
0.021825802 0.024027849 -0.1115438 -0.06914602 -0.01641538 -0.073885955 -0.058478765 -0.012591602
0.023463946 0.0432122 -0.033140253 0.025414107 0.004495893 0.05236936 0.022828605 -0.09052475
-0.089192614 -0.071124844 0.022462044 -0.03278922 -0.025913194 -0.018933985 -0.05065311 -0.09746419

localization.3.bias f4 [10]
00000000: 31d9 d6bd 0531 a7bd 835d b7bd 86b1 aebd
00000010: aed9 79bc 561a a4bd 7d85 b93b a3e3 b4bd
00000020: e473 d9bc 46fd 61bc
-0.10490645 -0.081636466 -0.08953383 -0.08529954 -0.015249653 -0.08012836 0.005661665 -0.08832481
-0.026544519 -0.013793295
