deep_emotion-3-128-0.005.pt (torch, 275493 bytes, 24 tensors)

conv1.weight f4 [10, 1, 3, 3]
-0.032742172 0.1852836 0.07345133 -0.2631135 -0.2629912 0.02128035 0.08790387 -0.23249346
-0.00014863722 -0.28203103 -0.36633274 0.21478367 -0.0635876 -0.23608118 -0.22189441 -0.06500638
0.25692207 0.026147328 -0.3790929 -0.44813994 0.25964367 -0.19181201 0.2084222 0.34476376
0.3126478 0.1550555 -0.18595918 -0.15228699 -0.24013638 0.43218133 0.14255638 -0.3371916
0.3349146 -0.34478247 -0.36679938 -0.24416897 0.09428124 -0.0047812434 -0.15216865 -0.3243664
-0.09085797 -0.17180024 -0.16197413 0.31693467 0.505525 -0.128459 0.14982845 0.14673959
0.02270178 -0.3495002 0.13991839 0.037555646 0.052157283 0.16833551 0.07522907 -0.40156898
-0.4316096 0.052724928 -0.1805622 0.2569482 0.2839835 0.3027464 -0.07383989 0.2647105
0.516984 0.31329647 -0.24550521 -0.07123952 -0.17920673 -0.40652367 0.005470878 -0.18212105
0.39088756 0.15927215 -0.3614457 0.4619241 -0.31624573 -0.09680538 -0.2751267 -0.32479572
0.20070392 0.2734034 -0.080440216 -0.47948438 0.3489158 -0.4253981 0.1887988 -0.06787613
0.19546874 0.00081223465
00000000: a81c 06bd fcba 3d3e a76d 963d d0b6 86be
00000010: c8a6 86be 2154 ae3c f206 b43d c412 6ebe
00000020: 80db 1bb9 5f66 90be f78f bbbe 40f0 5b3e
00000030: 373a 82bd 44bf 71be 4a38 63be 1122 85bd
00000040: 4a8b 833e ec32 d63c 7718 c2be 9972 e5be
00000050: 04f0 843e 5e6a 44be a16c 553e e084 b03e
00000060: 5f13 a03e dec6 1e3e 156c 3ebe 1ff1 1bbe
00000070: 50e6 75be df46 dd3e 4dfa 113e 61a4 acbe
00000080: ed79 ab3e 5487 b0be 21cd bbbe 6e07 7abe
00000090: 8616 c13d faab 9cbb 19d2 1bbe 5a13 a6be
000000a0: be13 babd 67ec 2fbe 8cdc 25be 4345 a23e
000000b0: 166a 013f c28a 03be a16c 193e e742 163e
000000c0: 15f9 b93c b1f1 b2be c446 0f3e f3d3 193d
000000d0: e0a2 553d 2560 2c3e b311 9a3d 739a cdbe
000000e0: effb dcbe 18f6 573d 4ce5 38be b78e 833e
000000f0: 4966 913e 9301 9b3e 5e39 97bd 2288 873e
00000100: 1059 043f 6568 a03e b865 7bbe 07e6 91bd
00000110: f881 37be df23 d0be 0d45 b33b f17d 3abe
00000120: 6a22 c83e 3d18 233e 690f b9be 5181 ec3e
00000130: f6ea a1be e641 c6bd 68dd 8cbe a04b a6be
00000140: 5485 4d3e 88fb 8b3e d7bd a4bd fa7e f5be
00000150: 17a5 b23e c8cd d9be 7954 413e a402 8bbd
00000160: f528 483e 25ec 543a

conv1.bias f4 [10]
0.1927137 -0.31209394 0.17126095 -0.16021258 -0.30323178 -0.34001124 0.17639107 -0.10985523
0.17809781 0.1138223
00000000: bd56 453e c7ca 9fbe 085f 2f3e c40e 24be
00000010: 3241 9bbe f415 aebe dc9f 343e c7fb e0bd
00000020: 465f 363e ab1b e93d

conv2.weight f4 [10, 10, 3, 3]
0.06284761 -0.12126751 0.063607015 -0.12367468 -0.09740825 -0.08762088 -0.022788117 -0.040413693
0.020580826 -0.06150713 -0.043278545 0.0128485225 -0.042018928 -0.084632054 -0.08381712 0.022531753
-0.122746654 -0.08993504 0.056150377 -0.06716309 -0.12131953 0.07222014 -0.034611333 0.053589858
0.01733331 0.01082452 -0.060454734 0.046581507 0.101336114 0.0052058147 0.10049165 -0.032601096
-0.041370604 -0.038744524 0.012073873 -0.035126217 0.087055996 -0.08237319 -0.027253054 -0.05057406
-0.020634316 0.051043235 -0.0031682046 0.0035091136 -0.10588822 0.010600355 -0.09737929 0.016443022
-0.06405028 -0.014661742 0.03968263 -0.033840798 0.037894953 -0.049604528 0.016110776 -0.040191963
-0.06975648 -0.018056612 0.067672715 -0.07160529 0.013506473 -0.07270929 0.06558572 0.059793092
0.047267795 -0.02467434 -0.044089735 -0.11038816 0.043287806 -0.017805854 -0.05776752 -0.0024971014
-0.07170468 0.018289559 0.05518811 -0.036567442 -0.07002319 -0.016872171 -0.020507157 -0.0039435164
0.045651592 -0.13213381 0.02515671 0.03275364 -0.10767484 -0.009683201 -0.08802113 -0.058484606
0.013270671 -0.119136386 -0.052312315 -0.15490238 -0.10825965 0.001221176 -0.0048958044 -0.08328636
-0.05863928 -0.10662021 -0.117882706 -0.074032374 -0.055617873 -0.015676733 -0.006370722 0.05824624
0.045681823 -0.12125661 -0.0050656926 -0.13540776 -0.015475139 0.015686916 -0.014721408 0.026431177
0.035756536 -0.13825253 0.05533812 -0.13896476 -0.09928718 0.008541817 -0.0536757 0.04814097
-0.028036105 -0.06185793 0.044353873 -0.09703611 0.047024246 -0.10649635 -0.07902516 -0.12545544
-0.090185955 -0.06099166 -0.058392063 -0.019711547 -0.14518608 0.037372526 0.01174692 -0.05135025
0.055125553 0.08560049 -0.06435309 0.00030289337 -0.039594445 -0.102258205 0.03727429 -0.10453064
-0.17638022 -0.123455 -0.06840529 -0.038342603 -0.07146803 -0.03047405 -0.06809638 -0.14068322
0.044693388 -0.11315434 -0.034301184 -0.015796911 -0.117921874 -0.0311619 -0.09527909 -0.11471826
-0.05596825 -0.13903272 0.009044179 -0.03216805 -0.10353078 -0.12288056 -0.07324483 -0.12667574
-0.012175728 -0.048711035 -0.049756005 0.013461976 -0.04935421 -0.09484685 -0.04879133 0.02213961
-0.021652982 -0.086644 -0.025158761 -0.10556495 -0.060617387 -0.11243246 -0.046517976 -0.10238319
0.00458144 -0.04945062 -0.024364328 -0.054437954 -0.04783657 -0.02855731 -0.007425119 -0.13904896
-0.06148111 -0.13593496 0.03944978 0.03391305 -0.028126009 -0.072206005 0.020648101 0.037841626
0.039399903 -0.021218555 -0.014213905 0.019849924 -0.05477414 -0.06524647 0.059318095 0.038172603
-0.09724871 -0.10965711 0.06748178 -0.082178146 0.0194617 -0.14471613 -0.038565483 -0.11962823
-0.16476199 0.013196855 0.022506677 -0.06380699 0.033254337 0.10212694 -0.009070457 0.054031525
0.030677903 -0.12605564 0.03291934 -0.05246552 -0.0135550415 -0.09695219 0.10460344 -0.061842706
-0.0754516 -0.083575435 -0.18677013 -0.12100309 -0.062016193 -0.05849365 -0.013845909 -0.13781193
-0.01882541 -0.045594964 -0.111780584 0.09581497 -0.064397484 -0.02229423 0.026581848 -0.097482465
-0.027954418 0.02892419 -0.027198827 -0.13054205 0.028861333 -0.02206037 -0.12740722 -0.1087073
00000000: 3fb6 803d 1a5b f8bd 6544 823d 2749 fdbd
00000010: fa7d c7bd 9372 b3bd 25ae babc d488 25bd
00000020: 1f99 a83c e6ee 7bbd d844 31bd 9c82 523c
00000030: 0a1c 2cbd 9253 adbd 4fa8 abbd 8394 b83c
00000040: 9962 fbbd dd2f b8bd f0fd 653d cd8c 89bd
00000050: 6076 f8bd 27e8 933d 9dc4 0dbd 0a81 5b3d
00000060: 96fe 8d3c 5459 313c 629f 77bd 40cc 3e3d
00000070: 4f89 cf3d 8a95 aa3b 91ce cd3d ba88 05bd
00000080: 3974 29bd 94b2 1ebd 7ed1 453c 82e0 0fbd
00000090: 6a4a b23d 46b3 a8bd cc41 dfbc bf26 4fbd
000000a0: 4c09 a9bc b612 513d a7a1 4fbb 28f9 653b
000000b0: ecdb d8bd 1dad 2d3c cb6e c7bd 84b3 863c
000000c0: cb2c 83bd ce37 70bc 418a 223d a69c 0abd
000000d0: bd37 1b3d 1e2e 4bbd bffa 833c 54a0 24bd
000000e0: 7cdc 8ebd 76eb 93bc fe97 8a3d cba5 92bd
000000f0: 414a 5d3c 9ce8 94bd ce51 863d 9ae9 743d
00000100: e09b 413d d721 cabc 7097 34bd 3013 e2bd
00000110: 8e4e 313d 95dd 91bc a39d 6cbd 69a6 23bb
00000120: e7d9 92bd fcd3 953c ed0c 623d bec7 15bd
00000130: 5168 8fbd 8237 8abc a0fe a7bc 9d38 81bb
00000140: 2afd 3a3d 164e 07be 7215 ce3c ae28 063d
00000150: a084 dcbd 4aa6 1ebc 6c44 b4bd 8e8d 6fbd
00000160: 3a6d 593c c7fd f3bd 7045 56bd bb9e 1ebe
00000170: 3cb7 ddbd de0f a03a fc6c a0bb 0a92 aabd
00000180: be2f 70bd b25b dabd 7d6c f1bd 499e 97bd
00000190: 91cf 63bd 7e6c 80bc 7dc1 d0bb 9c93 6e3d
000001a0: dd1c 3b3d 6355 f8bd 1cfe a5bb 55a8 0abe
000001b0: 708b 7dbc d981 803c 0f32 71bc 3286 d83c
000001c0: 7275 123d 1292 0dbe 39aa 623d c74c 0ebe
000001d0: 1457 cbbd faf2 0b3c 0ddb 5bbd 772f 453d
000001e0: f9ab e5bc be5e 7dbd 68ac 353d deba c6bd
000001f0: 7f9c 403d c21a dabd f1d7 a1bd 6477 00be
00000200: 6ab3 b8bd 64d2 79bd 842c 6fbd 1c7a a1bc
00000210: a9ab 14be ef13 193d 2776 403c a454 52bd
00000220: 55cb 613d 4f4f af3d 8ecb 83bd a9cd 9e39
00000230: c92d 22bd c06c d1bd edac 183d 2914 d6bd
00000240: 049d 34be fad5 fcbd 1318 8cbd 220d 1dbd
00000250: d55d 92bd b7a4 f9bc 1d76 8bbd 430f 10be
00000260: 6a10 373d 76bd e7bd 667f 0cbd 8668 81bc
00000270: 0681 f1bd 3e47 ffbc af21 c3bd 68f1 eabd
00000280: f73e 65bd 985e 0ebe 092e 143c a5c2 03bd
00000290: f207 d4bd cea8 fbbd 6301 96bd 49b7 01be
000002a0: b47c 47bc 3985 47bd f4cc 4bbd 9f8f 5c3c
000002b0: a427 4abd 113f c2bd 6bd9 47bd 215e b53c
000002c0: 9861 b1bc 6972 b1bd bf19 cebc 7032 d8bd
000002d0: f049 78bd fd42 e6bd a289 3ebd 47ae d1bd
000002e0: e71f 963b bc8c 4abd b397 c7bc 55fa 5ebd
000002f0: 47f0 43bd 05f1 e9bc 6a4e f3bb da62 0ebe
00000300: 9ed3 7bbd 8932 0bbe 1896 213d 69e8 0a3d
00000310: 8468 e6bc bee0 93bd 3526 a93c d2ff 1a3d
00000320: cb61 213d 89d2 adbc 70e1 68bc 4f9c a23c
00000330: d95a 60bd f19f 85bd 88f7 723d e05a 1c3d
00000340: 552a c7bd e893 e0bd e333 8a3d 044d a8bd
00000350: 256e 9f3c 7730 14be d7f6 1dbd a5ff f4bd
00000360: 5eb7 28be 9f37 583c ec5f b83c 3dad 82bd
00000370: b335 083d ee27 d13d 419c 14bc 2950 5d3d
00000380: 3a50 fb3c bb14 01be 6ed6 063d 16e6 56bd
00000390: f715 5ebc df8e c6bd 543a d63d c74e 7dbd
000003a0: 5e86 9abd 9929 abbd ab40 3fbe 78d0 f7bd
000003b0: b104 7ebd 0a97 6fbd f4d9 62bc 921e 0dbe
000003c0: bf37 9abc c9c1 3abd 38ed e4bd a43a c43d
000003d0: d4e2 83bd 64a2 b6bc 2dc2 d93c e3a4 c7bd
000003e0: aa00 e5bc 6cf2 ec3c 13d0 debc d1ac 05be
000003f0: 9a6e ec3c f3b7 b4bc 0a77 02be efa1 debd

conv2.bias f4 [10]
-0.116324276 0.015160194 -0.03284634 -0.023373682 -0.04102642 -0.100723766 0.109556936 -0.09972727
-0.00645604 -0.11474104
00000000: 6c3b eebd 7662 783c e289 06bd 2a7a bfbc
00000010: 520b 28bd 4348 cebd 635f e03d d03d ccbd
00000020: 308d d3bb 5afd eabd

conv3.weight f4 [10, 10, 3, 3]
0.08667165 -0.046009935 0.019972643 0.010631564 -0.046403404 -0.040397517 -0.02112813 0.0036901527
0.009095764 0.06280818 0.034450155 0.11876162 0.10265167 -0.05054848 -0.08043785 0.045889214
-0.01896396 -0.009450617 -0.12549366 -0.0074598645 -0.032710478 0.09240187 -0.13397732 0.008436007
-0.07832169 -0.12241019 0.056478888 -0.08102696 0.016270172 0.0694041 -0.015478052 0.22903413
0.17264637 0.03354608 0.066029504 0.24464422 0.114033744 0.014214519 0.09526563 0.016112417
-0.019870486 0.112903774 -0.17037567 -0.20242403 -0.049245164 0.042597327 -0.11071857 -0.13734257
0.06509512 0.026309703 0.024528233 0.054921728 0.0051327385 0.015646612 -0.112359874 -0.15024987
-0.21410006 -0.045341507 -0.27540302 -0.10046734 -0.1034903 -0.10114908 -0.042722 0.056586273
0.08738293 -0.0038159168 0.06941038 0.028187599 0.06907903 -0.0074049835 0.12607954 -0.017277805
0.06817895 0.16908006 0.2427986 0.12511025 0.11181158 0.13017543 0.006512083 -0.09623865
0.25787494 0.026169779 0.047846254 0.06936837 -0.007892349 -0.026130892 -0.056431256 0.0752309
0.034031775 0.11807025 0.055071156 -0.05889948 0.061838984 0.03528802 -0.046809457 -0.00082758244
-0.0070773386 -0.00013479649 0.015489483 0.065547764 -0.101399094 -0.010130432 -0.032767512 -0.078502625
0.012773498 -0.033903535 -0.08782867 -0.097327426 -0.043075133 0.0033079677 -0.10110532 -0.06018747
-0.05781043 0.08308219 0.048974235 -0.12007882 -0.020581255 0.07709342 -0.037482444 -0.0416828
0.072477184 0.036830597 -0.006431325 0.016058097 0.0483852 0.12210402 0.05643345 0.12718825
0.115255155 -0.18831483 0.07916589 0.05916051 -0.2107039 -0.075406455 0.087647855 -0.08972549
0.027569124 -0.06535303 -0.008464988 0.01140975 0.021724004 -0.13421044 -0.10719649 -0.1203026
-0.14065845 0.0969956 0.33486465 -0.21926197 -0.16297454 0.13013446 -0.045319363 -0.18564896
-0.11588488 0.07455422 -0.021891462 0.06514255 -0.00068213313 -0.067172416 -0.036107518 0.0883903
0.034470543 -0.025287729 0.09168861 0.16096921 0.2456746 -0.39304978 -0.26382026 0.0037684606
-0.21155155 -0.22702332 -0.0701623 0.114899494 0.05226835 0.10797879 -0.0072563835 -0.1260726
-0.054177754 -0.0765193 0.07184708 -0.054950148 0.12453691 -0.08715476 -0.06657265 -0.06685258
-0.056869503 -0.058095053 0.032392662 -0.07195395 0.041599575 0.08298332 -0.008909225 0.012358643
0.059716657 -0.08621548 -0.100102514 -0.04838117 0.020518376 0.05157853 -0.034212656 0.12537709
0.017353712 0.018113362 -0.01739552 -0.06453095 -0.07419246 0.03182646 0.08023927 0.0081215715
-0.05823637 -0.09337092 -0.11371328 -0.18700883 -0.1137336 -0.063626066 -0.2590751 -0.1581914
0.049625345 0.10624792 0.19647355 0.061465908 -0.093402274 -0.13052645 0.09109966 -0.063064955
-0.12730838 -0.07477522 -0.06768519 0.07039373 -0.0130328415 0.027185505 0.005847011 0.011203956
0.021352496 -0.035963908 -0.116203465 0.015432291 -0.033080146 0.009660716 0.09852189 -0.035065114
-0.08402847 -0.11450228 -0.14950356 -0.13059294 -0.057216223 -0.072302386 0.046391517 0.075288594
0.052330967 0.010588542 0.1145838 0.0030118132 0.32620448 0.37335014 0.2587075 0.035337865
00000000: e880 b13d ea74 3cbd ab9d a33c 0330 2e3c
00000010: 7f11 3ebd de77 25bd e614 adbc 7dd6 713b
00000020: 6606 153c 93a1 803d 9b1b 0d3d 4b39 f33d
00000030: 0a3b d23d ec0b 4fbd 99bc a4bd 54f6 3b3d
00000040: 4f5a 9bbc c3d6 1abc 6981 00be e171 f4bb
00000050: 6cfb 05bd 313d bd3d 5a31 09be 2e37 0a3c
00000060: 1f67 a0bd 32b2 fabd 6856 673d 76f1 a5bd
00000070: 0649 853c bd23 8e3d a897 7dbc ec87 6a3e
00000080: 36ca 303e 9d67 093d 7a3a 873d 0484 7a3e
00000090: 868a e93d 04e4 683c a01a c33d 30fe 833c
000000a0: 6ec7 a2bc 183a e73d f676 2ebe 3f48 4fbe
000000b0: 4cb5 49bd 897a 2e3d 6bc0 e2bd 88a3 0cbe
000000c0: 9750 853d 7287 d73c 6fef c83c 9bf5 603d
000000d0: 8830 a83b 532d 803c ef1c e6bd 1adb 19be
000000e0: 0c3d 5bbe 04b8 39bd a001 8dbe d2c1 cdbd
000000f0: b9f2 d3bd 4027 cfbd 44fd 2ebd 02c7 673d
00000100: d2f5 b23d 7614 7abb 0827 8e3d aee9 e63c
00000110: 4e79 8d3d 81a5 f2bb ff1a 013e 2f8a 8dbc
00000120: 68a1 8b3d 5323 2d3e 32a0 783e e71c 003e
00000130: 78fd e43d b54c 053e 5063 d53b c518 c5bd
00000140: 2f08 843e 0162 d63c 6ffa 433d 0111 8e3d
00000150: e94e 01bc 7410 d6bc 7624 67bd a812 9a3d
00000160: e764 0b3d d1ce f13d 4b92 613d 9540 71bd
00000170: e04a 7d3d 2c8a 103d 46bb 3fbd 1ef2 58ba
00000180: 05e9 e7bb 2858 0db9 9ac7 7d3c e83d 863d
00000190: 54aa cfbd 1dfa 25bc 3a37 06bd fcc5 a0bd
000001a0: ef47 513c 6fde 0abd 85df b3bd 9a53 c7bd
000001b0: 8d6f 30bd 7dca 583b 4e10 cfbd 2387 76bd
000001c0: a1ca 6cbd ff26 aa3d 3599 483d e2eb f5bd
000001d0: 059a a8bc 28e3 9d3d 3187 19bd 95bb 2abd
000001e0: eb6e 943d aedb 163d ddbd d2bb 458c 833c
000001f0: 8f2f 463d ac11 fa3d c326 673d a33d 023e
00000200: e50a ec3d 9ad5 40be ba21 a23d 4a52 723d
00000210: c3c2 57be b36e 9abd b880 b33d ffc1 b7bd
00000220: a5d8 e13c cfd7 85bd bcb0 0abc f6ef 3a3c
00000230: 8af6 b13c 766e 09be d589 dbbd 3661 f6bd
00000240: c508 10be a1a5 c63d 6173 ab3e 3686 60be
00000250: cce2 26be f841 053e cca0 39bd c31a 3ebe
00000260: 0d55 edbd e2af 983d b955 b3bc 7569 853d
00000270: 2ed1 32ba b191 89bd 7ae5 13bd f905 b53d
00000280: fc30 0d3d 3628 cfbc 3dc7 bb3d 1dd5 243e
00000290: 1f92 7b3e d23d c9be 7313 87be 47f8 763b
000002a0: f8a0 58be cd78 68be 40b1 8fbd 6d50 eb3d
000002b0: 5617 563d fc23 dd3d f5c6 edbb 2d19 01be
000002c0: 7ee9 5dbd 27b6 9cbd 9024 933d 6813 61bd
000002d0: 350d ff3d 327e b2bd 3e57 88bd 01ea 88bd
000002e0: ffef 68bd 14f5 6dbd 2bae 043d 985c 93bd
000002f0: 5164 2a3d 29f3 a93d 00f8 11bc e87b 4a3c
00000300: 7499 743d be91 b0bd 8c02 cdbd 552b 46bd
00000310: 2716 a83c 0244 533d 9222 0cbd da62 003e
00000320: 5f29 8e3c 7962 943c 0d81 8ebc cd28 84bd
00000330: 37f2 97bd 765c 023d 7d54 a43d 5710 053c
00000340: 4389 6ebd 4139 bfbd 82e2 e8bd 3e7f 3fbe
00000350: 29ed e8bd 624e 82bd 7ea5 84be edfc 21be
00000360: f243 4b3d 8298 d93d 5d30 493e adc3 7b3d
00000370: b149 bfbd baa8 05be 7592 ba3d 3328 81bd
00000380: 215d 02be c023 99bd 889e 8abd 972a 903d
00000390: b387 55bc 23b4 de3c 4998 bf3b cc90 373c
000003a0: 6eeb ae3c e44e 13bd 15fc edbd b8d7 7c3c
000003b0: 0c7f 07bd fb47 1e3c d8c5 c93d 70a0 0fbd
000003c0: 1e17 acbd 2c80 eabd 7617 19be 28ba 05be
000003d0: 8f5b 6abd 4613 94bd 0805 3e3d e830 9a3d
000003e0: ff58 563d 907b 2d3c e9aa ea3d d761 453b
000003f0: 4604 a73e c027 bf3e 4f75 843e 70be 103d

conv3.bias f4 [10]
0.24277543 0.15346721 0.035875212 -0.13518967 0.045143243 0.15537086 0.14202344 0.06762161
0.15036644 -0.021449234
00000000: 1f9a 783e 8226 1d3e e3f1 123d 296f 0abe
00000010: 1fe8 383d 8a19 1f3e 986e 113e 337d 8a3d
00000020: a9f9 193e 4eb6 afbc

conv4.weight f4 [10, 10, 3, 3]
-0.065432176 0.26504907 0.2550459 -0.3486688 -0.09511198 0.23354793 -0.17798893 -0.22365183
-0.2879494 -0.030197535 -0.101913266 0.045564827 -0.25972554 -0.3084139 -0.18213105 0.026240941
-0.049295876 -0.25914922 -0.12888676 -0.026658747 0.06377283 -0.13214637 -0.086786725 0.10131711
0.005214558 -0.17078154 -0.11558238 -0.14571367 -0.11297673 0.023948444 0.10620613 -0.022579629
-0.055818453 0.08467117 0.030283459 -0.025658965 -0.25265393 -0.09079068 0.005950092 -0.008104375
-0.0016663449 -0.2838072 -0.12543736 -0.13763008 0.042949624 -0.106293194 0.07570353 6.435305e-05
-0.020355029 -0.14428027 0.16005565 -0.05047069 -0.11277927 -0.07645423 0.10406026 -0.042894837
-0.08502797 0.2653837 0.26786503 0.041110303 0.15024464 0.31623906 0.26459715 -0.06583972
0.0059160413 0.021287235 0.06310137 -0.037303727 -0.06956502 -0.1392999 0.016940016 -0.039256316
0.285935 0.11583665 0.13311699 0.066730686 0.19987467 0.25472814 0.15863754 0.071090005
0.30531758 0.18761744 -0.050507553 -0.1402145 0.04467493 -0.005322535 -0.053751577 0.008866071
-0.03329165 -0.08950731 -0.03527252 0.06472227 0.07418462 0.33109787 -0.061682936 0.13483956
0.164877 -0.12777765 0.111426875 0.11553863 -0.09630144 -0.09714222 0.39092356 0.333913
-0.18788818 0.38136983 0.2830955 -0.17251995 -0.030302186 -0.010896629 -0.12585743 0.00515103
0.010186835 -0.038165953 -0.024178267 0.044423245 0.046275146 0.16772802 0.18645114 -0.08363295
0.058902673 0.007803557 -0.03221525 -0.0213092 -0.09379811 0.046605777 -0.27036005 -0.22268161
-0.2376023 -0.22802128 -0.2631779 -0.1616265 -0.37188074 -0.24547894 -0.11796975 0.046223417
0.12316044 0.32721362 -0.07009586 0.2940531 0.24076876 0.06604639 0.45110932 0.22869037
-0.0470556 0.1288222 0.105921924 0.15488663 0.17069075 0.08715435 0.1639897 0.22662546
0.12432556 0.102725424 -0.12881659 -0.10753223 0.12404032 0.0029800443 -0.105945505 0.18606234
0.0028423932 -0.10864531 0.005913637 0.09036681 -0.09687849 0.26916167 0.060449265 -0.0053885626
0.1835306 0.16409157 0.07786664 0.016420407 0.05169168 0.11428509 0.00915855 -0.018168997
0.046278972 0.057155438 -0.028229723 -0.01731684 0.13197663 -0.0117206285 -0.031093344 0.06527179
0.12922724 -0.14695789 -0.08559874 0.0023503257 -0.021846456 0.1512122 0.2501838 0.03629409
0.0435523 0.19745263 0.15302685 0.16346799 0.06942863 -0.07909205 -0.30389994 -0.024424102
-0.079416625 -0.3372802 -0.04626523 0.18126538 -0.2046705 -0.012305401 0.0046812887 -0.039445102
0.0971749 -0.056904837 0.13613835 0.0039047317 0.0953966 0.098608844 -0.038087565 -0.041843977
-0.076848306 -0.15150957 -0.0038074532 -0.12853873 0.069531955 0.013299743 0.030500982 -0.051717147
0.0042901034 -0.27171996 -0.17534608 -0.20607147 -0.22581601 0.042938415 0.05039641 -0.16052082
0.029562231 0.003921218 0.19366628 0.24861908 0.13194104 0.21666285 -0.06392107 -0.14830619
-0.096447326 -0.044837218 0.038396865 0.105035484 0.20036724 0.16354774 0.05940101 0.21443449
-0.019605495 0.052158102 0.12500046 0.16704173 0.23954996 0.23619495 -0.1402161 0.004295817
00000000: 4e01 86bd 83b4 873e 6095 823e b884 b2be
00000010: 12ca c2bd 3027 6f3e bb42 36be fc04 65be
00000020: 1b6e 93be d260 f7bc e7b7 d0bd 2fa2 3a3d
00000030: bffa 84be 6de8 9dbe 9080 3abe 3ef7 d63c
00000040: 79ea 49bd 35af 84be e4fa 03be 7263 dabc
00000050: 549b 823d 6151 07be 3dbd b1bd 587f cf3d
00000060: e2de aa3b 5be1 2ebe 74b6 ecbd f735 15be
00000070: 5860 e7bd 872f c43c 9982 d93d eaf8 b8bc
00000080: e4a1 64bd 1468 ad3d 0415 f83c c032 d2bc
00000090: db5b 81be 77f0 b9bd fdf8 c23b 36c8 04bc
000000a0: 4269 daba 2d4f 91be a772 00be e6ee 0cbe
000000b0: f2eb 2f3d 3fb0 d9bd 740a 9b3d 48f5 8638
000000c0: 97bf a6bc 35be 13be a1e5 233e 5bba 4ebd
000000d0: d1f8 e6bd 0994 9cbd 8c1d d53d 7fb2 2fbd
000000e0: 2523 aebd 5fe0 873e 9b25 893e 4763 283d
000000f0: bbd9 193e 16ea a13e 4779 873e fad6 86bd
00000100: 5adb c13b 9162 ae3c 4b3b 813d cbcb 18bd
00000110: 1b78 8ebd a2a4 0ebe cac5 8a3c 3bcb 20bd
00000120: 1366 923e c43b ed3d d24f 083e 19aa 883d
00000130: f2ab 4c3e ba6b 823e e171 223e a397 913d
00000140: 9652 9c3e c91e 403e 02e1 4ebd 6494 0fbe
00000150: 0ffd 363d a968 aebb 9d2a 5cbd ff42 113c
00000160: d35c 08bd 9c4f b7bd eb79 10bd 1c8d 843d
00000170: 1bee 973d a985 a93e 3fa7 7cbd 6213 0a3e
00000180: 84d5 283e 25d8 02be c633 e43d 849f ec3d
00000190: b039 c5bd 80f2 c6bd 2227 c83e a5f6 aa3e
000001a0: c265 40be e842 c33e e5f1 903e 12a9 30be
000001b0: 4a3c f8bc c687 32bc c5e0 00be f9c9 a83b
000001c0: afe6 263c e753 1cbd 8011 c6bc 26f5 353d
000001d0: 028b 3d3d e5c0 2b3e 0ced 3e3e c147 abbd
000001e0: ee43 713d fbb4 ff3b 23f4 03bd a290 aebc
000001f0: 3919 c0bd b3e5 3e3d a26c 8abe a606 64be
00000200: 044e 73be 697e 69be 41bf 86be 6b81 25be
00000210: 2767 bebe d55e 7bbe 209a f1bd c454 3d3d
00000220: 8a3b fc3d 8b88 a73e 6b8e 8fbd 218e 963e
00000230: 168c 763e 5443 873d cdf7 e63e cf2d 6a3e
00000240: 5fbd 40bd f7e9 033e 98ed d83d 9a9a 1e3e
00000250: 8ec9 2e3e fb7d b23d eaec 273e 8110 683e
00000260: 669e fe3d b561 d23d 7fe8 03be dc39 dcbd
00000270: da08 fe3d d94c 433b f5f9 d8bd 2087 3e3e
00000280: 7247 3a3b 6f81 debd 2fc7 c13b 3c12 b93d
00000290: 3b68 c6bd 8fcf 893e a699 773d 8a92 b0bb
000002a0: 72ef 3b3e 9f07 283e 8c78 9f3d 1784 863c
000002b0: a8ba 533d 4d0e ea3d be0d 163c 26d7 94bc
000002c0: 058f 3d3d d21b 6a3d 0542 e7bc 0cdc 8dbc
000002d0: e224 073e e107 40bc 78b7 febc 37ad 853d
000002e0: 2554 043e 217c 16be 644e afbd ec07 1a3b
000002f0: 57f7 b2bc 5fd7 1a3e 1718 803e 1da9 143d
00000300: e663 323d 0631 4a3e 12b3 1c3e 2764 273e
00000310: 9930 8e3d 03fb a1bd c698 9bbe 0e15 c8bc
00000320: 2fa5 a2bd feaf acbe 9c80 3dbd a29d 393e
00000330: 2595 51be 989c 49bc 7f65 993b 3091 21bd
00000340: a203 c73d 0c15 69bd da67 0b3e 87e6 7f3b
00000350: 4b5f c33d 6ff3 c93d b501 1cbd 9764 2bbd
00000360: a562 9dbd 5325 1bbe 7786 79bb a89f 03be
00000370: c566 8e3d 2ae7 593c 32dd f93c 5cd5 53bd
00000380: ff93 8c3b e11e 8bbe ec8d 33be 6604 53be
00000390: 503c 67be 31e0 2f3d 776c 4e3d 925f 24be
000003a0: 7e2c f23c 907d 803b 7450 463e 0096 7e3e
000003b0: 8d1b 073e dedc 5d3e 0de9 82bd 94dd 17be
000003c0: 2d86 c5bd 3ba7 37bd 0846 1d3d d81c d73d
000003d0: 122d 4d3e 0f79 273e 794e 733d b794 5b3e
000003e0: b49b a0bc bca3 553d 1f00 003e fd0c 2b3e
000003f0: 964c 753e 17dd 713e cf94 0fbe edc3 8c3b

conv4.bias f4 [10]
-0.03755788 0.04218268 0.0372379 0.097279295 0.075509444 -0.105721556 0.057330176 0.07499385
-0.048604175 -0.11162134
00000000: 4bd6 19bd bfc7 2c3d c586 183d 5e3a c73d
00000010: b2a4 9a3d 8b84 d8bd 0cd3 6a3d 6096 993d
00000020: 2c15 47bd bb99 e4bd

norm.weight f4 [10]
0.74047834 0.6115185 0.6182833 0.6608073 0.75567555 0.86126554 0.7920553 0.6837514
0.593525 0.6233701
00000000: fd8f 3d3f 7a8c 1c3f d047 1e3f ab2a 293f
00000010: f473 413f e67b 5c3f 23c4 4a3f 550a 2f3f
00000020: 41f1 173f 2f95 1f3f

norm.bias f4 [10]
-0.41949266 -0.3702955 -0.41722167 -0.24421193 -0.5696763 -0.47627485 -0.4672199 -0.339585
-0.3954124 -0.42962807
00000000: bec7 d6be 5f97 bdbe 149e d5be b112 7abe
00000010: 4ed6 11bf 4cda f3be 7237 efbe 16de adbe
00000020: 7e73 cabe 36f8 dbbe

norm.running_mean f4 [10]
-0.2301895 0.58551663 0.49014843 -0.6796213 -1.153861 -1.0931432 -0.41146782 -0.34051073
0.41092888 -0.34844297
00000000: ccb6 6bbe 6be4 153f bcf4 fa3e a9fb 2dbf
00000010: b8b1 93bf 1eec 8bbf e9ab d2be 6c57 aebe
00000020: 4565 d23e 1e67 b2be

norm.running_var f4 [10]
0.20651646 0.09117811 0.18158181 0.15489818 0.27309644 0.26603442 0.17517851 0.2391988
0.28662056 0.11820816
00000000: 0d79 533e 97bb ba3d 95f0 393e a19d 1e3e
00000010: 4cd3 8b3e aa35 883e ff61 333e 88f0 743e
00000020: eebf 923e 1f17 f23d

fc1.weight f4 [50, 810]
-0.048067216 -0.023353474 -0.023060853 -0.010643197 -0.03571596 -0.045960784 0.02441723 -0.010800358
-0.033772152 -0.00079935684 -0.030309943 -0.015082512 -0.0063230656 -0.058768816 -0.025381703 -0.010755457
-0.0026150383 0.013828728 -0.035210207 -0.05667423 0.0028859475 -0.051390458 -0.0627971 0.029182266
0.0052673593 -0.008941475 -0.011568488 -0.016672984 -0.065190785 -0.0069890423 -0.015015755 -0.019942809
0.011853095 -0.052450694 -0.04922716 -0.018337328 -0.04690389 -0.005732337 -0.045188054 -0.027252022
-0.060359657 -0.06375007 -0.04695117 -0.060216993 -0.03919091 -0.035111748 -0.056041334 -0.034883182
-0.025775304 0.05730391 0.008566283 0.012435518 0.030600445 -0.022106225 -0.016035436 -0.055406015
-0.03470802 -0.057346612 -0.023352342 -0.008790319 -0.010701109 0.012244986 0.023276811 0.0075214664
-0.03238134 -0.004503504 -0.011127896 0.0026317195 -0.043579496 -0.024834491 0.011407403 -0.062304832
0.027025888 -0.035377722 -0.025348414 -0.042122345 -0.0177711 -0.013062177 0.0010242123 -0.008067458
-0.0473926 -0.04319147 -0.05540701 0.007051315 -0.037659146 -0.047421005 -0.037596002 -0.039574943
-0.058781486 0.021914717 -0.04054243 0.014750055 -0.049160585 -0.049028903 -0.024430653 -0.009070742
-0.032273307 -0.053116385 -0.054152545 0.01567247 0.001733865 0.067440055 0.030586235 -0.027516548
-0.039055638 -0.0544455 -0.038523026 -0.04888117 -0.043183185 -0.007693967 -0.045050073 0.0044516684
0.05632989 -0.0016976102 0.007373827 0.001395682 -0.05917625 0.007836626 -0.022557262 0.06126171
-0.06145886 -0.019798556 0.010417131 0.01699201 0.004496546 -0.029710598 -0.059989434 -0.0075457743
-0.0018063424 -0.017202027 -0.0070830337 0.028286269 0.00782427 -0.016100692 -0.013963673 -0.012873049
0.04765432 0.00819232 -0.003982216 -0.03511942 0.03024089 -0.061910897 -0.009099153 -0.0074498802
-0.0067765196 -0.004186404 0.060173668 0.006504286 -0.06522536 -0.04635548 -0.0031550648 -0.029724348
0.03807847 -0.026565507 -0.077536166 0.028163835 -0.025529105 -0.004466635 -0.045123357 0.004171341
-0.011662027 -0.0378338 -0.013400323 -0.0064077736 -0.022907311 0.0016695088 -0.04600626 -0.06341244
-0.05309553 -0.026472583 -0.017548423 0.015980424 -0.047659654 -0.020554423 -0.029122628 -0.04219695
-0.005096478 -0.049327403 -0.057008706 -0.0021956204 -0.0046447646 -0.009692003 -0.022940127 -0.06616485
0.029549852 -0.01621632 -0.02812751 -0.032322295 -0.037831943 0.001983602 -0.04010584 0.0045082415
-0.029059533 0.0020755928 -0.026897399 -0.04180662 0.0024810452 -0.04573138 -0.057897884 -0.07539039
-0.022745345 0.00043691718 -0.051269993 -0.022313487 -0.053038575 -0.017719321 -0.026421914 -0.062257785
-0.01896525 0.02355327 -0.047228713 -0.06640772 -0.05942609 -0.01353328 -0.06415753 -0.06184029
0.013618796 -0.05676275 -0.006673605 -0.013010454 0.03041114 -0.05874849 -0.0053701783 0.004206326
-0.0077442504 0.00225909 -0.016491793 -0.0019342715 -0.042809892 -0.05642191 -0.02032798 0.05847339
-0.05639529 -0.046484884 0.033421833 0.024518372 -0.023077562 -0.038352832 -0.0344625 -0.0036930058
-0.04898728 -0.031074695 -0.01490196 -0.04593157 -0.011568085 -0.04995374 -0.057456326 -0.05513366
0.0022031686 -0.057920437 -0.029611636 -0.06456016 -0.011922894 0.00020942939 -0.013489606 -0.005871756
00000000: 21e2 44bd c94f bfbc 1dea bcbc ce60 2ebc
00000010: e64a 12bd 6041 3cbd a506 c83c fcf3 30bc
00000020: ab54 0abd ee8b 51ba 8f4c f8bc a41c 77bc
00000030: b831 cfbb 92b7 70bd 4aed cfbc a837 30bc
00000040: 1061 2bbb e491 623c 9438 10bd 3d23 68bd
00000050: 2a22 3d3b cd7e 52bd c49b 80bd a60f ef3c
00000060: d099 ac3b 447f 12bc c189 3dbc c895 88bc
00000070: bf82 85bd 5604 e5bb a404 76bc 1a5f a3bc
00000080: 7c33 423c 8ad6 56bd 6ba2 49bd 2a38 96bc
00000090: 4b1e 40bd 54d6 bbbb 1c17 39bd a23f dfbc
000000a0: b03b 77bd 668f 82bd df4f 40bd 18a6 76bd
000000b0: a686 20bd 56d1 0fbd 998b 65bd abe1 0ebd
000000c0: bb26 d3bc 81b7 6a3d 9859 0c3c 58be 4b3c
000000d0: c9ad fa3c 1d18 b5bc bf5c 83bc 6bf1 62bd
000000e0: ff29 0ebd 48e4 6abd 694d bfbc 4505 10bc
000000f0: b453 2fbc 329f 483c 03af be3c a276 f63b
00000100: 4ca2 04bd 2192 93bb c751 36bc ed78 2c3b
00000110: 6a80 32bd b471 cbbc 1ee6 3a3c 5a33 7fbd
00000120: 6565 dd3c 3be8 10bd 7aa7 cfbc 7b88 2cbd
00000130: b394 91bc be02 56bc dd3e 863a 5f2d 04bc
00000140: be1e 42bd 8ae9 30bd 76f2 62bd b80e e73b
00000150: 7a40 1abd 873c 42bd 44fe 19bd 5619 22bd
00000160: dbc4 70bd 7e86 b33c d20f 26bd 37aa 713c
00000170: 9c5c 49bd 88d2 48bd cb22 c8bc 739d 14bc
00000180: 0431 04bd 9190 59bd 0fcf 5dbd 8d63 803c
00000190: db42 e33a 031e 8a3d fc8f fa3c 626a e1bc
000001a0: cef8 1fbd 3f02 5fbd 52ca 1dbd 9f37 48bd
000001b0: dae0 30bd ac1d fcbb 6d86 38bd 4ddf 913b
000001c0: 2cba 663d 5982 deba 25a0 f13b 51ef b63a
000001d0: cc62 72bd 3165 003c 02ca b8bc 8fed 7a3d
000001e0: 49bc 7bbd 9530 a2bc 9dac 2a3c d432 8b3c
000001f0: c357 933b a463 f3bc 7bb7 75bd 8b42 f7bb
00000200: cbc2 ecba 44eb 8cbc cb18 e8bb 9bb8 e73c
00000210: 5e31 003c 99e5 83bc e4c7 64bc 7be9 52bc
00000220: 2d31 433d 1539 063c 407d 82bb 62d9 0fbd
00000230: bebb f73c 4896 7dbd 9d14 15bc 201e f4bb
00000240: 910d debb 1a2e 89bb aa78 763d e821 d53b
00000250: e094 85bd 3edf 3dbd 34c5 4ebb 7a80 f3bc
00000260: 2bf8 1b3d e89f d9bc 48cb 9ebd d8b7 e63c
00000270: 6a22 d1bc da5c 92bb 45d3 38bd bfaf 883b
00000280: 1612 3fbc 9df7 1abd 078d 5bbc 4df8 d1bb
00000290: 1da8 bbbc 6bd3 da3a 0f71 3cbd 62de 81bd
000002a0: b37a 59bd 08dd d8bc b6c1 8fbc 61e9 823c
000002b0: c536 43bd c061 a8bc 9492 eebc b6d6 2cbd
000002c0: 5b00 a7bb 880b 4abd f681 69bd 66e4 0fbb
000002d0: 1c33 98bb 35cb 1ebc efec bbbc 7081 87bd
000002e0: 8812 f23c 17d8 84bc aa6b e6bc 6264 04bd
000002f0: abf5 1abd 52ff 013b 0546 24bd dfb9 933b
00000300: 420e eebc ab06 083b ef57 dcbc 6b3d 2bbd
00000310: 0899 223b d450 3bbd 5526 6dbd 4766 9abd
00000320: 7254 babc 0812 e539 7c00 52bd c6ca b6bc
00000330: fa3e 59bd 1c28 91bc c572 d8bc 0502 7fbd
00000340: 035d 9bbc caf2 c03c e572 41bd c500 88bd
00000350: c668 73bd b1ba 5dbc 0665 83bd 3e4c 7dbd
00000360: 5f21 5f3c 0f80 68bd 42ae dabb cd29 55bc
00000370: c820 f93c 42a2 70bd 52f8 afbb 38d5 893b
00000380: 7bc3 fdbb 3e0d 143b cc19 87bc 6287 fdba
00000390: 6d59 2fbd a91a 67bd dd86 a6bc cb81 6f3d
000003a0: bffe 66bd ef66 3ebd 55e5 083d c1da c83c
000003b0: 280d bdbc dc17 1dbd 8d28 0dbd 5b06 72bb
000003c0: e3a6 48bd 5c90 febc 5a27 74bc be22 3cbd
000003d0: 1188 3dbc 4b9c 4cbd 5357 6bbd d5d3 61bd
000003e0: 0963 103b fb3d 6dbd 1a94 f2bc 1e38 84bd
000003f0: 3e58 43bc 469a 5b39 8203 5dbc dc67 c0bb

fc1.bias f4 [50]
-0.0016482396 0.03903883 -0.060887903 -0.05538181 -0.018207777 -0.014174339 0.15052438 -0.0399909
0.060496178 -0.058839653 0.007744229 -0.08268658 -0.05262842 -0.040697433 -0.011250907 0.13174744
-0.048602875 -0.0019246369 -0.06520181 -0.01994617 -0.03931241 -0.043427587 -0.010868286 0.15525408
-0.09536407 -0.0171827 0.0027993545 0.06865859 0.29517096 -0.018198455 -0.07475392 0.03780898
0.042470414 0.111127555 -0.035424367 -0.009303108 -0.06918808 -0.0035053126 -0.010940372 0.009319298
0.011223919 -0.14837931 -0.065269955 -0.0051901443 -0.00474018 0.06293537 -0.06263214 -0.06809385
-0.05973875 -0.012544506
00000000: be09 d8ba 2ee7 1f3d 9865 79bd 09d8 62bd
00000010: 7a28 95bc 7d3b 68bc 1023 1a3e 7fcd 23bd
00000020: d7ca 773d d901 71bd 4dc3 fd3b 9557 a9bd
00000030: e690 57bd 5ab2 26bd b955 38bc cde8 063e
00000040: cf13 47bd 1944 fcba 8788 85bd 2666 a3bc
00000050: 0d06 21bd 20e1 31bd e510 32bc edfa 1e3e
00000060: 3d4e c3bd bcc2 8cbc 6075 373b e09c 8c3d
00000070: a620 973e ed14 95bc 9518 99bd 97dd 1a3d
00000080: 75f5 2d3d d896 e33d 2419 11bd 106c 18bc
00000090: 7bb2 8dbd 63b9 65bb 3f3f 33bc f8af 183c
000000a0: 87e4 373c bff0 17be 41ac 85bd 1612 aabb
000000b0: 8353 9bbb 42e4 803d 4845 80bd ca74 8bbd
000000c0: 9fb0 74bd 7987 4dbc

fc2.weight f4 [7, 50]
0.07737407 0.13946189 -0.14142178 -0.08358121 -0.12475244 -0.02506506 -0.14897586 -0.09700134
-0.09385204 0.009897245 -0.093368866 -0.039506566 -0.045310967 0.086002596 0.03827461 -0.039474692
-0.054650165 0.022638485 0.03563176 0.048203614 -0.07879331 0.10017564 -0.06787395 -0.07916916
-0.03213563 -0.036706876 -0.009525346 -0.1075845 -0.0025555347 0.12432894 -0.15187831 -0.06631744
0.10983845 0.10143734 0.031825904 -0.08137004 -0.085009284 0.030284226 0.035324387 -0.03778314
-0.056966823 0.13333341 -0.040702607 -0.08263318 0.090240486 0.17174475 0.021209914 -0.061164424
0.01966911 0.007897428 0.102593616 0.055611473 -0.11444495 -0.011466246 -0.09136093 0.023775855
0.060160864 0.064706236 -0.12249738 -0.14526927 -0.15745494 0.009750427 -0.0144442525 -0.050684456
0.092673115 -0.10155227 0.00810863 0.07805997 -0.058387168 -0.12464096 0.00285471 0.049178828
0.0021017971 0.023586549 0.098297626 -0.00905712 0.10803582 -0.18459038 -0.34130296 -0.14990482
-0.0864772 -0.2139583 -0.0775583 0.15898791 -0.0425009 0.079237305 0.014834481 0.024171667
0.0007376272 -0.007761063 -0.16526178 -0.03529404 0.094892144 0.08557703 0.05415787 0.119099185
0.062361125 -0.060254917 -0.0043493886 0.03045103 -0.00042537285 0.06121258 0.01019885 -0.05393931
0.03727836 -0.14880353 0.023902472 -0.019218499 -0.010139086 -0.05928442 -0.0021299508 0.015754633
-0.10640662 0.0180249 0.12086725 0.11111333 -0.14134905 -0.06488751 -0.081503324 -0.022016218
0.033841215 0.108208686 0.095593564 -0.1505292 -0.02472344 -0.042774193 -0.17141657 0.068371266
-0.02318708 0.039339133 -0.027723975 -0.06488138 0.0022334848 0.0679932 -0.084918775 -0.080943756
0.055268314 0.068513796 -0.044850394 -0.084121816 -0.012947454 0.022440204 -0.07641487 -0.04797014
0.09385412 0.052986536 0.094760485 -0.17494029 -0.066942245 -0.023070473 0.11875559 -0.22214405
-0.065884225 0.000787905 -0.14136584 -0.10379823 0.22213802 0.020198887 -0.11644473 -0.018862307
0.07748591 0.05431619 -0.068949796 -0.017409815 -0.056560546 -0.013212832 -0.1043097 0.046493288
-0.0409068 0.06473804 0.037324056 -0.06404647 -0.061901934 0.1428773 0.17236075 -0.021120332
-0.053211443 -0.07097711 0.16196536 -0.1448767 -0.10040772 -0.017225243 0.068485 -0.007824048
-0.08600085 0.070028774 0.104149655 -0.027033651 -0.08030372 0.043158274 0.015343728 0.026698427
0.056396574 -0.056647442 0.013414442 0.17359388 0.043744914 -0.010438724 0.022182511 0.11289528
-0.0931432 0.08635984 0.11644854 0.01829465 -0.11448216 0.08187604 -0.11543048 0.08188279
-0.12952594 -0.07741631 -0.070628844 0.0600141 -0.08313485 -0.08570985 -0.06451831 -0.17974637
0.09150337 0.14115039 0.056370337 0.016492784 0.03557627 0.022227686 -0.058518443 -0.16918533
0.04896693 -0.0808894 -0.12340186 0.08509876 0.08984744 -0.0045127803 0.069258966 -0.00685721
0.07059577 0.13484526 -0.057914156 -0.0025187442 0.074043274 -0.07528605 -0.05531278 0.1252895
-0.03567024 -0.122668244 0.075420104 0.0068612113 -0.057119142 0.005742536 0.06469704 -0.111913085
0.006228289 -0.02480524 -0.11143873 0.06839007 0.07641875 0.031334788 -0.10198186 0.048119858
00000000: 4c76 9e3d 19cf 0e3e dfd0 10be a02c abbd
00000010: 357e ffbd 3e55 cdbc 218d 18be a3a8 c6bd
00000020: 8035 c0bd 0e28 223c 2d38 bfbd a3d1 21bd
00000030: fe97 39bd 2122 b03d d6c5 1c3d 37b0 21bd
00000040: dad8 5fbd 5874 b93c 9cf2 113d 2771 453d
00000050: 635e a1bd e328 cd3d 7f01 8bbd 7123 a2bd
00000060: a6a0 03bd f359 16bd 3210 1cbc 4355 dcbd
00000070: c27a 27bb 2ca0 fe3d fd85 1bbe 70d1 87bd
00000080: fbf2 e03d 61be cf3d e15b 023d 56a5 a6bd
00000090: 5919 aebd a016 f83c 4eb0 103d 7ec2 1abd
000000a0: 0b56 69bd 8e88 083e c7b7 26bd 963b a9bd
000000b0: 01d0 b83d dbdd 2f3e 6ac0 ad3c 8c87 7abd
000000c0: 1d21 a13c 3764 013c 9a1c d23d dbc8 633d
000000d0: 1d62 eabd ecdc 3bbc 701b bbbd 95c5 c23c
000000e0: 3d6b 763d b484 843d e8df fabd 78c1 14be
000000f0: de3b 21be 41c0 1f3c 96a7 6cbc 819a 4fbd
00000100: 67cb bd3d a3fa cfbd 0fda 043c e8dd 9f3d
00000110: 6227 6fbd c243 ffbd 1616 3b3b bd6f 493d
00000120: 4ebe 093b 9438 c13c 4450 c93d 5164 14bc
00000130: e241 dd3d 4305 3dbe 43bf aebe a680 19be
00000140: f51a b1bd e217 5bbe e3d6 9ebd bacd 223e
00000150: 6c15 2ebd 2b47 a23d 530c 733c a903 c63c
00000160: 535d 413a 8450 febb 623a 29be 7c90 10bd
00000170: d056 c23d 0343 af3d a5d4 5d3d 46ea f33d
00000180: 616e 7f3d dccd 76bd 5185 8ebb 7074 f93c
00000190: 9404 dfb9 0bba 7a3d 1419 273c 77ef 5cbd
000001a0: 32b1 183d f45f 18be 1ecf c33c 1d70 9dbc
000001b0: 691e 26bc 38d4 72bd a596 0bbb dc0f 813c
000001c0: b7eb d9bd f5a8 933c 4089 f73d 638f e33d
000001d0: cebd 10be bee3 84bd 37eb a6bd 5b5b b4bc
000001e0: 169d 0a3d 849c dd3d 8fc6 c33d 5424 1abe
000001f0: d088 cabc fe33 2fbd d387 2fbe 3c06 8c3d
00000200: d5f2 bdbc 1222 213d 641d e3bc 87e0 84bd
00000210: a85f 123b 0540 8b3d e5e9 adbd d7c5 a5bd
00000220: 0761 623d f650 8c3d 0cb5 37bd 0f48 acbd
00000230: 8f21 54bc 85d4 b73c 667f 9cbd 567c 44bd
00000240: 9736 c03d 6908 593d c911 c23d 8c23 33be
00000250: 0419 89bd 4afe bcbc 2136 f33d bb79 63be
00000260: 4fee 86bd 698b 4e3a 35c2 10be 2b94 d4bd
00000270: 2678 633e 2378 a53c 937a eebd 2085 9abc
00000280: efb0 9e3d a77a 5e3d 8d35 8dbd 079f 8ebc
00000290: 08ac 67bd a27a 58bc 53a0 d5bd bf6f 3e3d
000002a0: e48d 27bd 6195 843d 1ce1 183d cc2a 83bd
000002b0: e28c 7dbd 6d4e 123e 567f 303e 8c04 adbc
000002c0: 3ef4 59bd 725c 91bd 3fda 253e 8f5a 14be
000002d0: 90a2 cdbd f41b 8dbc dd41 8c3d 7030 00bc
000002e0: 3721 b0bd 3f6b 8f3d 6a4c d53d ad75 ddbc
000002f0: 4776 a4bd bbc6 303d 4264 7b3c a9b6 da3c
00000300: 1800 673d 2607 68bd 3fc8 5b3c 98c2 313e
00000310: de2d 333d 2f07 2bbc 19b8 b53c a435 e73d
00000320: ddc1 bebd 6edd b03d 927c ee3d a9de 953c
00000330: 9f75 eabd a0ae a73d d166 ecbd 2ab2 a73d
00000340: 73a2 04be 718c 9ebd dba5 90bd 58d1 753d
00000350: 9b42 aabd a588 afbd 2d22 84bd 6f0f 38be
00000360: 1e66 bb3d ba89 103e 95e4 663d e01b 873c
00000370: 6cb8 113d d616 b63c 09b1 6fbd eb3e 2dbe
00000380: 8c91 483d 57a9 a5bd 1dba fcbd 4248 ae3d
00000390: ef01 b83d f2df 93bb a5d7 8d3d 72b2 e0bb
000003a0: 8494 903d e014 0a3e 6537 6dbd 8411 25bb
000003b0: 00a4 973d 932f 9abd a78f 62bd e44b 003e
000003c0: f51a 12bd 7d39 fbbd db75 9a3d 03d4 e03b
000003d0: c3f5 69bd e22b bc3b e27f 843d b032 e5bd
000003e0: ad16 cc3b 5c34 cbbc fd39 e4bd 1810 8c3d
000003f0: 6f81 9c3d e858 003d dedb d0bd 5419 453d

fc2.bias f4 [7]
0.011106682 -0.4069507 0.060779467 0.15325485 0.0009604065 0.0026407444 0.13730697
00000000: cdf8 353c d85b d0be e4f3 783d d7ee 1c3e
00000010: cac3 7b3a 5710 2d3b 339a 0c3e

localization.0.weight f4 [8, 1, 7, 7]
0.0039224206 0.08097203 0.06923875 0.015853515 0.063641585 -0.015655996 0.044430047 -0.11389559
-0.21280473 -0.1372011 -0.053920094 0.092563845 0.054952163 0.2256221 0.06536732 0.007001106
0.10595604 0.19245036 0.19133541 0.15482596 -0.029151278 -0.1318087 -0.06321004 0.10469369
0.1763976 -0.053330448 -0.030816436 0.1585608 -0.08411791 0.05679917 0.109650984 -0.037871234
-0.08910359 -0.067683294 0.04016922 -0.044255093 -0.11960089 0.12013521 0.062061295 -0.10122748
-0.01885674 0.096663125 -0.078178234 0.095852286 0.00063173065 -0.07313161 0.15422596 0.04502961
0.027914107 0.04311256 -0.037323497 -0.035829477 0.079509646 0.07436819 -0.031576965 0.15608312
-0.083427705 0.07875685 -0.16334572 -0.13652866 -0.096733995 0.05789414 -0.0704853 0.003982593
-0.04640298 -0.06620871 -0.0011421987 0.06667165 -0.024245946 -0.09363922 -0.1420376 0.0393732
-0.17146777 -0.006256402 -0.07994039 -0.044281077 -0.15277615 -0.22377126 0.016728505 0.018267617
-0.12294367 -0.032513 0.044269692 -0.15820901 0.05564063 -0.137652 -0.005706704 -0.042823404
-0.12741165 0.074343376 0.0029674778 0.017624943 0.09717313 -0.014172053 -0.031912856 0.10833013
-0.06552505 0.055057656 0.032056257 -0.057263035 -0.1699201 -0.08400479 -0.0879738 -0.061299864
0.013861103 -0.08624942 -0.14255472 -0.2026213 0.058850143 0.01107765 -0.14161777 -0.04412338
-0.1883396 -0.14342874 -0.11000466 0.06909406 0.033617996 0.022740895 0.05558161 -0.027933206
-0.0038953624 -0.010059802 -0.02181709 -0.17648768 -0.102211565 0.03657332 0.109314084 -0.0826772
-0.16386601 -0.17958544 -0.18693818 -0.082567625 -0.17535569 0.017776156 -0.006435301 -0.040339436
-0.0008446657 -0.10979533 -0.076714784 -0.1406316 -0.062796704 0.044147097 0.09981067 -0.07006731
0.03563521 0.11353224 8.0492624e-05 -0.19534348 -0.12802856 0.041046247 -0.02136781 0.06661145
-0.0049930364 -0.10096126 0.067141704 -0.133297 0.07103617 -0.08949078 0.029486591 -0.0716676
-0.14008464 -0.16037403 -0.071241885 -0.106311955 -0.15832652 0.049989168 -0.13405333 -0.10952997
0.01987864 -0.15660706 0.057619397 -0.16636106 0.0102490885 -0.013167893 0.023390444 0.053357437
-0.095439054 -0.038746912 -0.115789376 0.0853804 -0.06022834 0.020427398 -0.08992447 0.03707087
0.007423701 -0.047257423 0.10915982 -0.029764116 -0.08885724 0.09790516 0.026880482 -0.08594451
-0.050472893 0.032295916 -0.103285536 -0.009006106 0.005458991 -0.043532792 -0.19096224 0.06598868
-0.036480997 0.0889149 0.09006325 -0.115526274 -0.058225207 0.0014737612 -0.1393584 -0.12387179
-0.027625984 0.054306958 -0.17781378 -0.074208826 -0.14819343 0.03798614 -0.027761003 -0.0457831
-0.076441534 -0.04460826 -0.036449105 -0.05423913 -0.062494818 -0.16278398 0.061624657 -0.060517903
0.05898096 0.044892482 -0.080515206 -0.10707316 -0.041371584 -0.13297257 -0.124707334 -0.09809607
-0.094129264 0.08612983 0.09844625 0.08081351 -0.06778594 -0.13449697 0.055475518 -0.12073235
0.08879302 0.11195371 0.05669941 -0.07888786 -0.12183122 -0.0334178 -0.13495968 0.047431886
0.051499862 -0.07121608 0.006901306 -0.0027734302 -0.10714177 -0.0052237194 0.105526865 -0.0112183895
00000000: a687 803b aad4 a53d 0ccd 8d3d 3bdf 813c
00000010: 8556 823d 0141 80bc 48fc 353d 1742 e9bd
00000020: 7ce9 59be 727e 0cbe 51db 5cbd 1d92 bd3d
00000030: 8515 613d 7b09 673e 4ddf 853d 8969 e53b
00000040: 7bff d83d b511 453e 6eed 433e b28a 1e3e
00000050: a9ce eebc dcf8 06be 4474 81bd a569 d63d
00000060: 93a1 343e 0771 5abd c072 fcbc c35d 223e
00000070: 0346 acbd 3fa6 683d b290 e03d de1e 1bbd
00000080: f17b b6bd 8a9d 8abd 7b88 243d d444 35bd
00000090: 50f1 f4bd 7309 f63d fc33 7e3d 5a50 cfbd
000000a0: 7379 9abc 51f7 c53d e91b a0bd 344e c43d
000000b0: ba9a 253a 07c6 95bd 69ed 1d3e f870 383d
000000c0: 20ac e43c cc96 303d 86e0 18bd eec1 12bd
000000d0: f4d5 a23d 594e 983d d956 01bd 41d4 1f3e
000000e0: 25dc aabd 454b a13d 1a44 27be 2bce 0bbe
000000f0: 791c c6bd 6822 6d3d 995a 90bd 6980 823b
00000100: 0d11 3ebd 6f98 87bd d4b5 95ba 258b 883d
00000110: 6f9f c6bc ebc5 bfbd 4e72 11be cb45 213d
00000120: 3f95 2fbe 8102 cdbb cab7 a3bd 1360 35bd
00000130: 5a71 1cbe 4b24 65be 380a 893c f8a5 953c
00000140: e4c9 fbbd 5a2c 05bd 2354 353d 8b01 22be
00000150: 6ee7 633d a5f4 0cbe 4eff babb 9867 2fbd
00000160: 3378 02be 5741 983d 047a 423b 2f62 903c
00000170: b502 c73d e631 68bc 0eb7 02bd 30dc dd3d
00000180: ff31 86bd 2384 613d 6c4d 033d a58c 6abd
00000190: 89ff 2dbe b40a acbd 9c2b b4bd 9115 7bbd
000001a0: ae19 633c 89a3 b0bd ddf9 11be f57b 4fbe
000001b0: d90c 713d 087f 353c 4004 11be b8ba 34bd
000001c0: 19dc 40be fcde 12be 204a e1bd 3081 8d3d
000001d0: 06b3 093d 1d4b ba3c 8ba9 633d 2ed4 e4bc
000001e0: 5649 7fbb ded1 24bc c1b9 b2bc 30b9 34be
000001f0: 4c54 d1bd e8cd 153d 10e0 df3d aa52 a9bd
00000200: 7ecc 27be 3fe5 37be b96c 3fbe 3719 a9bd
00000210: 7190 33be 4d9f 913c 38df d2bb f73a 25bd
00000220: 8e6c 5dba 60dc e0bd a41c 9dbd bb01 10be
00000230: 8f9b 80bd 96d3 343d 8969 cc3d 737f 8fbd
00000240: 3af6 113d 9783 e83d 26ce a838 1f08 48be
00000250: eb19 03be 1c20 283d 8c0b afbc 956b 883d
00000260: a09c a3bb c7c4 cebd 9781 893d 027f 08be
00000270: 697b 913d f146 b7bd dd8d f13c 76c6 92bd
00000280: 5972 0fbe 1739 24be 44e7 91bd 15ba d9bd
00000290: 5920 22be 71c1 4c3d 4745 09be 4051 e0bd
000002a0: 88d8 a23c 9a5d 20be 5102 6c3d 8e5a 2abe
000002b0: cbeb 273c 25be 57bc 519d bf3c 548d 5a3d
000002c0: 8d75 c3bd 15b5 1ebd fb22 edbd ebdb ae3d
000002d0: feb1 76bd 5c57 a73c 522a b8bd a0d7 173d
000002e0: 8542 f33b 0091 41bd 2f8f df3d e0d3 f3bc
000002f0: c9fa b5bd 8082 c83d 7534 dc3c ad03 b0bd
00000300: aabc 4ebd b948 043d 5e87 d3bd 598e 13bc
00000310: 56e1 b23b 714f 32bd 9b8b 43be 1325 873d
00000320: 196d 15bd 0419 b63d 1573 b83d 0a99 ecbd
00000330: 8e7d 6ebd 382b c13a f8b3 0ebe 7eb0 fdbd
00000340: e34f e2bc f970 5e3d d114 36be ccfa 97bd
00000350: 05c0 17be 5b97 1b3d 0b6b e3bc 0f87 3bbd
00000360: 618d 9cbd 27b7 36bd a84b 15bd da29 5ebd
00000370: 91fa 7fbd d8b0 26be 236a 7c3d 9fe1 77bd
00000380: 0596 713d 2ee1 373d 28e5 a4bd 2c49 dbbd
00000390: 4075 29bd f629 08be 8f66 ffbd 98e6 c8bd
000003a0: d8c6 c0bd d664 b03d 309e c93d 8e81 a53d
000003b0: 5bd3 8abd 93b9 09be 4c3a 633d 8642 f7bd
000003c0: 1dd9 b53d fd47 e53d a43d 683d f58f a1bd
000003d0: a682 f9bd 1ae1 08bd df32 0abe f047 423d
000003e0: 85f1 523d bcd9 91bd 5a24 e23b 70c2 35bb
000003f0: 256d dbbd bc2b abbb 781e d83d 56cd 37bc

localization.0.bias f4 [8]
0.025844304 0.08602591 -0.07818273 -0.09392352 -0.005705677 0.03957899 -0.115000665 -0.14526957
00000000: 6fb7 d33c 5a2e b03d 441e a0bd f95a c0bd
00000010: b0f6 babb 941d 223d 7885 ebbd 8cc1 14be

localization.3.weight f4 [10, 8, 5, 5]
-0.07095456 0.058760926 0.04689073 0.0050597372 -0.047630765 -0.06331513 -0.03237132 0.019091925
-0.020850334 0.001665392 -0.02757835 0.0038444218 0.008322883 -0.077521004 -0.04784778 -0.025642555
0.0012476774 -0.080280446 0.012988429 0.037998043 -0.054531354 -0.056837577 -0.037538934 -0.052036036
0.0008623631 -0.0041012918 -0.10236652 -0.03515263 0.03610113 -0.061384887 -0.023054564 -0.08839642
0.025678435 0.017396107 -0.08919109 0.031044098 -0.0648504 -0.042623978 -0.07027086 -6.383839e-05
-0.061695863 -0.0018740259 0.029927924 -0.0064217574 0.033753768 0.02454631 0.032156065 -0.015203967
-0.091068685 0.0004996022 0.0077541997 -0.033660453 -0.033395946 -0.067041226 -0.056755636 -0.03765275
0.047847643 -0.02616953 -0.06362092 0.013690268 -0.07507029 -0.057722393 -0.091574445 0.003145828
0.017080393 0.009614855 -0.07074026 -0.041690767 -0.06466756 -0.050398376 0.0029315588 -0.07521166
-0.020098226 -0.035120055 0.005517945 0.029134508 -0.047674447 -0.06992709 0.030946767 -0.025404355
0.029646482 -0.045290817 -0.04147378 -0.04022468 -0.0039342865 -0.07672243 -0.019692536 0.010700466
-0.012734022 -0.027904237 0.022988627 0.018305147 -0.0370032 -0.04965704 0.0043413574 0.015625665
-0.1045286 -0.016944604 -0.017726094 -0.004259735 0.034165155 -0.04408786 -0.025948605 -0.109768555
0.013198298 -0.004607702 -0.023284858 -0.014879237 0.033068564 0.013387797 -0.023218695 -0.041733567
0.03994312 0.039720643 0.026587712 0.0053759273 -0.014883227 -0.03001682 0.0038763122 -0.059097078
-0.06421234 -0.025633559 -0.036852375 -0.06311352 -0.020877363 -0.019688329 -0.05279377 -0.06159619
-0.0075228782 -0.05877765 0.037814967 -0.079929754 -0.0570508 0.06930814 0.0277592 0.008009366
-0.031335164 -0.016524335 -0.0036880344 0.050073706 -0.08080087 -0.063983604 -0.039174166 -0.020133255
-0.086092554 0.030649418 0.03963926 0.037784364 0.043880563 0.007368334 -0.006958663 0.026263217
0.0038807844 0.028938737 -0.018304193 -0.0071228747 0.07181126 -0.061509527 -0.057949077 -0.056053273
-0.010344571 0.06252959 0.006886512 -0.022739999 -0.036836177 -0.00030812004 0.07172249 0.0020825916
0.03302693 -0.03697848 -0.0014858803 -0.0484244 -0.06054293 0.0046876026 0.036306724 0.019548928
0.045847896 -0.010799931 0.011088924 -0.013245806 -0.030794654 0.0020824855 -0.025160585 0.03463671
-0.084242076 -0.059465785 0.037780013 -0.0012653276 -0.06672668 0.011014806 0.02352283 -0.017549748
0.052568235 -0.08586694 -0.08722795 -0.068190776 0.014128386 -0.05676179 -0.035651464 -0.0681241
-0.041913945 -0.052065674 0.04348905 0.04416072 -0.026649334 -0.040246367 -0.069691196 -0.061545495
-0.014221695 -0.06204015 0.02560009 -0.047797237 0.012659577 -0.056544904 0.0087097 -0.018136287
-0.038147356 -0.0011325158 -0.003122351 0.049543355 0.02317479 -0.016983831 0.0050422996 0.015746102
-0.10460899 0.024251712 0.008546586 0.012779395 -0.038166884 -0.013950911 0.018854087 -0.013588828
0.021825802 0.024027849 -0.1115438 -0.06914602 -0.01641538 -0.073885955 -0.058478765 -0.012591602
0.023463946 0.0432122 -0.033140253 0.025414107 0.004495893 0.05236936 0.022828605 -0.09052475
-0.089192614 -0.071124844 0.022462044 -0.03278922 -0.025913194 -0.018933985 -0.05065311 -0.09746419
00000000: a050 91bd 4caf 703d 7e10 403d 27cc a53b
00000010: 7a18 43bd 5dab 81bd ca97 04bd ab66 9c3c
00000020: 52ce aabc 4849 da3a feeb e1bc b2f2 7b3b
00000030: b45c 083c 55c3 9ebd 09fc 43bd 5610 d2bc
00000040: 1b89 a33a 136a a4bd 6bcd 543c d6a3 1b3d
00000050: 455c 5fbd 85ce 68bd 6dc2 19bd bd23 55bd
00000060: 3510 623a 2164 86bb 8aa5 d1bd 34fc 0fbd
00000070: c7de 133d b86e 7bbd eddc bcbc 2f09 b5bd
00000080: 955b d23c 4882 8e3c d1a9 b6bd 3150 fe3c
00000090: 49d0 84bd 7b96 2ebd 2bea 8fbd fae0 85b8
000000a0: cdb4 7cbd e0a1 f5ba 682b f53c 9b6d d2bb
000000b0: 6441 0a3d 5815 c93c 14b6 033d 0f1a 79bc
000000c0: 3882 babd bcf7 023a f116 fe3b 8bdf 09bd
000000d0: 30ca 08bd e94c 89bd 9978 68bd c539 1abd
000000e0: e4fb 433d 7b61 d6bc af4b 82bd 254d 603c
000000f0: 74be 99bd 516e 6cbd 628b bbbd 3c2a 4e3b
00000100: 2eec 8b3c a087 1d3c 45e0 90bd f0c3 2abd
00000110: 6d70 84bd 876e 4ebd 651f 403b 9208 9abd
00000120: 09a5 a4bc 0cda 0fbd e1cf b43b 7eab ee3c
00000130: 4846 43bd ef35 8fbd 1384 fd3c cb1c d0bc
00000140: 2edd f23c dd82 39bd 69e0 29bd a2c2 24bd
00000150: 30eb 80bb a620 9dbd 3e52 a1bc 0251 2f3c
00000160: 5ca2 50bc 6d97 e4bc a552 bc3c adf4 953c
00000170: ab90 17bd 2e65 4bbd f241 8e3b 6501 803c
00000180: 1713 d6bd 69cf 8abc 5036 91bc 3f95 8bbb
00000190: c3f0 0b3d 7995 34bd 2b92 d4bc 56ce e0bd
000001a0: ad3d 583c 35fc 96bb e3bf bebc 0bc8 73bc
000001b0: e772 073d 7e58 5b3c 2235 bebc d1f0 2abd
000001c0: 669b 233d 1db2 223d 79ce d93c 8c28 b03b
000001d0: c7d8 73bc d6e5 f5bc ba09 7e3b c70f 72bd
000001e0: c281 83bd 78fd d1bc 84f2 16bd a941 81bd
000001f0: 0107 abbc 6b49 a1bc 483e 58bd 494c 7cbd
00000200: 7a82 f6bb d5c0 70bd dee3 1a3d 36b2 a3bd
00000210: 1aae 69bd 6df1 8d3d 4367 e33c b739 033c
00000220: 4d59 00bd 0b5e 87bc f3b2 71bb 161a 4d3d
00000230: ed7a a5bd d609 83bd 1775 20bd 7fee a4bc
00000240: 4b51 b0bd 7d14 fb3c c75c 223d c7c3 1a3d
00000250: 1bbc 333d 1172 f13b 7f05 e4bb f525 d73c
00000260: c254 7e3b ee10 ed3c adf2 95bc 0167 e9bb
00000270: c811 933d 6af1 7bbd 035c 6dbd 1e98 65bd
00000280: 477c 29bc 840f 803d 40a8 e13b 3c49 babc
00000290: 88e1 16bd 2c8b a1b9 3ee3 923d 177c 083b
000002a0: 3f47 073d bf76 17bd dfc1 c2ba aa58 46bd
000002b0: ddfb 77bd 769a 993b 5cb6 143d 1325 a03c
000002c0: 01cb 3b3d 32f2 30bc 51ae 353c f004 59bc
000002d0: 1245 fcbc 4f7a 083b 921d cebc 39df 0d3d
000002e0: 1c87 acbd 6592 73bd 37bf 1a3d 59d9 a5ba
000002f0: ffa7 88bd 7277 343c f3b2 c03c 7dc4 8fbc
00000300: ca51 573d 02db afbd 91a4 b2bd 9ba7 8bbd
00000310: bf7a 673c 0d7f 68bd 4507 12bd a684 8bbd
00000320: f5ad 2bbd d142 55bd 9321 323d dfe1 343d
00000330: b44f dabc 60d9 24bd 42ba 8ebd 2117 7cbd
00000340: 1d02 69bc d01d 7ebd 48b7 d13c 09c7 43bd
00000350: 1d6a 4f3c a19b 67bd 21b3 0e3c 8d92 94bc
00000360: 6740 1cbd ed70 94ba 5ba0 4cbb f9ed 4a3d
00000370: 0fd9 bd3c ad21 8bbc e039 a53b f8fd 803c
00000380: 3d3d d6bd 87ab c63c fb06 0c3c ab60 513c
00000390: e154 1cbd 5d92 64bc e373 9a3c ada3 5ebc
000003a0: 06cc b23c 0dd6 c43c 1371 e4bd 6e9c 8dbd
000003b0: 8c79 86bc 8551 97bd 6e87 6fbd 024d 4ebc
000003c0: 7637 c03c 47ff 303d 13be 07bd 3f31 d03c
000003d0: 4952 933b 4181 563d 0e03 bb3c 0a65 b9bd
000003e0: 9eaa b6bd e7a9 91bd 5202 b83c fd4d 06bd
000003f0: e847 d4bc 721b 9bbc a379 4fbd 4e9b c7bd
